{"format": "graph-model", "generatedBy": "2.4.0", "convertedBy": "TensorFlow.js Converter v1.7.0", "userDefinedMetadata": {"signature": {"inputs": {"f0_hz:0": {"name": "f0_hz:0", "dtype": "DT_FLOAT", "tensorShape": {"dim": [{"size": "-1"}]}}, "loudness_db:0": {"name": "loudness_db:0", "dtype": "DT_FLOAT", "tensorShape": {"dim": [{"size": "-1"}]}}}, "outputs": {"Identity:0": {"name": "Identity:0", "dtype": "DT_FLOAT", "tensorShape": {"dim": [{"size": "1"}, {"size": "80000"}]}}}}}, "modelTopology": {"node": [{"name": "f0_hz", "op": "Placeholder", "attr": {"dtype": {"type": "DT_FLOAT"}, "shape": {"shape": {"dim": [{"size": "-1"}]}}}}, {"name": "loudness_db", "op": "Placeholder", "attr": {"dtype": {"type": "DT_FLOAT"}, "shape": {"shape": {"dim": [{"size": "-1"}]}}}}, {"name": "Func/StatefulPartitionedCall/autoencoder/StatefulPartitionedCall/input_control_node/_72", "op": "NoOp", "input": ["^f0_hz", "^loudness_db"]}, {"name": "StatefulPartitionedCall/autoencoder/StatefulPartitionedCall/processor_group/random_uniform/shape", "op": "Const", "input": ["^Func/StatefulPartitionedCall/autoencoder/StatefulPartitionedCall/input_control_node/_72"], "attr": {"value": {"tensor": {"dtype": "DT_INT32", "tensorShape": {"dim": [{"size": "2"}]}}}, "dtype": {"type": "DT_INT32"}}}, {"name": "StatefulPartitionedCall/autoencoder/StatefulPartitionedCall/processor_group/random_uniform/sub", "op": "Const", "input": ["^Func/StatefulPartitionedCall/autoencoder/StatefulPartitionedCall/input_control_node/_72"], "attr": {"dtype": {"type": "DT_FLOAT"}, "value": {"tensor": {"dtype": "DT_FLOAT", "tensorShape": {}}}}}, {"name": "StatefulPartitionedCall/autoencoder/StatefulPartitionedCall/processor_group/random_uniform/min", "op": "Const", "input": ["^Func/StatefulPartitionedCall/autoencoder/StatefulPartitionedCall/input_control_node/_72"], "attr": {"dtype": {"type": "DT_FLOAT"}, "value": {"tensor": {"dtype": "DT_FLOAT", "tensorShape": {}}}}}, {"name": "StatefulPartitionedCall/autoencoder/StatefulPartitionedCall/processor_group/frame/zeros/packed", "op": "Const", "input": ["^Func/StatefulPartitionedCall/autoencoder/StatefulPartitionedCall/input_control_node/_72"], "attr": {"dtype": {"type": "DT_INT32"}, "value": {"tensor": {"dtype": "DT_INT32", "tensorShape": {"dim": [{"size": "2"}]}}}}}, {"name": "StatefulPartitionedCall/autoencoder/StatefulPartitionedCall/processor_group/frame/zeros/Const", "op": "Const", "input": ["^Func/StatefulPartitionedCall/autoencoder/StatefulPartitionedCall/input_control_node/_72"], "attr": {"dtype": {"type": "DT_INT32"}, "value": {"tensor": {"dtype": "DT_INT32", "tensorShape": {}}}}}, {"name": "StatefulPartitionedCall/autoencoder/StatefulPartitionedCall/processor_group/frame/packed", "op": "Const", "input": ["^Func/StatefulPartitionedCall/autoencoder/StatefulPartitionedCall/input_control_node/_72"], "attr": {"value": {"tensor": {"dtype": "DT_INT32", "tensorShape": {"dim": [{"size": "1"}, {"size": "2"}]}}}, "dtype": {"type": "DT_INT32"}}}, {"name": "StatefulPartitionedCall/autoencoder/StatefulPartitionedCall/processor_group/frame/zeros_1/packed", "op": "Const", "input": ["^Func/StatefulPartitionedCall/autoencoder/StatefulPartitionedCall/input_control_node/_72"], "attr": {"dtype": {"type": "DT_INT32"}, "value": {"tensor": {"dtype": "DT_INT32", "tensorShape": {"dim": [{"size": "2"}]}}}}}, {"name": "StatefulPartitionedCall/autoencoder/StatefulPartitionedCall/processor_group/frame/zeros_1/Const", "op": "Const", "input": ["^Func/StatefulPartitionedCall/autoencoder/StatefulPartitionedCall/input_control_node/_72"], "attr": {"dtype": {"type": "DT_INT32"}, "value": {"tensor": {"dtype": "DT_INT32", "tensorShape": {}}}}}, {"name": "StatefulPartitionedCall/autoencoder/StatefulPartitionedCall/processor_group/frame/concat/axis", "op": "Const", "input": ["^Func/StatefulPartitionedCall/autoencoder/StatefulPartitionedCall/input_control_node/_72"], "attr": {"value": {"tensor": {"dtype": "DT_INT32", "tensorShape": {}}}, "dtype": {"type": "DT_INT32"}}}, {"name": "StatefulPartitionedCall/autoencoder/StatefulPartitionedCall/processor_group/frame/Const", "op": "Const", "input": ["^Func/StatefulPartitionedCall/autoencoder/StatefulPartitionedCall/input_control_node/_72"], "attr": {"dtype": {"type": "DT_FLOAT"}, "value": {"tensor": {"dtype": "DT_FLOAT", "tensorShape": {}}}}}, {"name": "StatefulPartitionedCall/autoencoder/StatefulPartitionedCall/processor_group/frame/zeros_like", "op": "Const", "input": ["^Func/StatefulPartitionedCall/autoencoder/StatefulPartitionedCall/input_control_node/_72"], "attr": {"dtype": {"type": "DT_INT32"}, "value": {"tensor": {"dtype": "DT_INT32", "tensorShape": {"dim": [{"size": "2"}]}}}}}, {"name": "StatefulPartitionedCall/autoencoder/StatefulPartitionedCall/processor_group/frame/concat_1", "op": "Const", "input": ["^Func/StatefulPartitionedCall/autoencoder/StatefulPartitionedCall/input_control_node/_72"], "attr": {"value": {"tensor": {"dtype": "DT_INT32", "tensorShape": {"dim": [{"size": "2"}]}}}, "dtype": {"type": "DT_INT32"}}}, {"name": "StatefulPartitionedCall/autoencoder/StatefulPartitionedCall/processor_group/frame/ones_like/Shape", "op": "Const", "input": ["^Func/StatefulPartitionedCall/autoencoder/StatefulPartitionedCall/input_control_node/_72"], "attr": {"dtype": {"type": "DT_INT32"}, "value": {"tensor": {"dtype": "DT_INT32", "tensorShape": {"dim": [{"size": "1"}]}}}}}, {"name": "StatefulPartitionedCall/autoencoder/StatefulPartitionedCall/processor_group/frame/ones_like/Const", "op": "Const", "input": ["^Func/StatefulPartitionedCall/autoencoder/StatefulPartitionedCall/input_control_node/_72"], "attr": {"value": {"tensor": {"dtype": "DT_INT32", "tensorShape": {}}}, "dtype": {"type": "DT_INT32"}}}, {"name": "StatefulPartitionedCall/autoencoder/StatefulPartitionedCall/processor_group/frame/concat_2", "op": "Const", "input": ["^Func/StatefulPartitionedCall/autoencoder/StatefulPartitionedCall/input_control_node/_72"], "attr": {"value": {"tensor": {"dtype": "DT_INT32", "tensorShape": {"dim": [{"size": "3"}]}}}, "dtype": {"type": "DT_INT32"}}}, {"name": "StatefulPartitionedCall/autoencoder/StatefulPartitionedCall/processor_group/frame/add_1", "op": "Const", "input": ["^Func/StatefulPartitionedCall/autoencoder/StatefulPartitionedCall/input_control_node/_72"], "attr": {"dtype": {"type": "DT_INT32"}, "value": {"tensor": {"dtype": "DT_INT32", "tensorShape": {"dim": [{"size": "1250"}, {"size": "1"}]}}}}}, {"name": "StatefulPartitionedCall/autoencoder/StatefulPartitionedCall/processor_group/frame/GatherV2/axis", "op": "Const", "input": ["^Func/StatefulPartitionedCall/autoencoder/StatefulPartitionedCall/input_control_node/_72"], "attr": {"dtype": {"type": "DT_INT32"}, "value": {"tensor": {"dtype": "DT_INT32", "tensorShape": {}}}}}, {"name": "StatefulPartitionedCall/autoencoder/StatefulPartitionedCall/processor_group/frame/concat_3", "op": "Const", "input": ["^Func/StatefulPartitionedCall/autoencoder/StatefulPartitionedCall/input_control_node/_72"], "attr": {"dtype": {"type": "DT_INT32"}, "value": {"tensor": {"dtype": "DT_INT32", "tensorShape": {"dim": [{"size": "3"}]}}}}}, {"name": "StatefulPartitionedCall/autoencoder/StatefulPartitionedCall/processor_group/rfft/Pad/paddings", "op": "Const", "input": ["^Func/StatefulPartitionedCall/autoencoder/StatefulPartitionedCall/input_control_node/_72"], "attr": {"dtype": {"type": "DT_INT32"}, "value": {"tensor": {"dtype": "DT_INT32", "tensorShape": {"dim": [{"size": "3"}, {"size": "2"}]}}}}}, {"name": "StatefulPartitionedCall/autoencoder/StatefulPartitionedCall/processor_group/rfft/fft_length", "op": "Const", "input": ["^Func/StatefulPartitionedCall/autoencoder/StatefulPartitionedCall/input_control_node/_72"], "attr": {"value": {"tensor": {"dtype": "DT_INT32", "tensorShape": {"dim": [{"size": "1"}]}}}, "dtype": {"type": "DT_INT32"}}}, {"name": "StatefulPartitionedCall/autoencoder/StatefulPartitionedCall/processor_group/BroadcastTo", "op": "Const", "input": ["^Func/StatefulPartitionedCall/autoencoder/StatefulPartitionedCall/input_control_node/_72"], "attr": {"dtype": {"type": "DT_FLOAT"}, "value": {"tensor": {"dtype": "DT_FLOAT", "tensorShape": {"dim": [{"size": "1"}, {"size": "1250"}, {"size": "128"}]}}}}}, {"name": "StatefulPartitionedCall/autoencoder/StatefulPartitionedCall/processor_group/mul_8/x", "op": "Const", "input": ["^Func/StatefulPartitionedCall/autoencoder/StatefulPartitionedCall/input_control_node/_72"], "attr": {"value": {"tensor": {"dtype": "DT_FLOAT", "tensorShape": {}}}, "dtype": {"type": "DT_FLOAT"}}}, {"name": "StatefulPartitionedCall/autoencoder/StatefulPartitionedCall/processor_group/add_3/y", "op": "Const", "input": ["^Func/StatefulPartitionedCall/autoencoder/StatefulPartitionedCall/input_control_node/_72"], "attr": {"value": {"tensor": {"dtype": "DT_FLOAT", "tensorShape": {}}}, "dtype": {"type": "DT_FLOAT"}}}, {"name": "StatefulPartitionedCall/autoencoder/StatefulPartitionedCall/processor_group/Log_2", "op": "Const", "input": ["^Func/StatefulPartitionedCall/autoencoder/StatefulPartitionedCall/input_control_node/_72"], "attr": {"value": {"tensor": {"dtype": "DT_FLOAT", "tensorShape": {}}}, "dtype": {"type": "DT_FLOAT"}}}, {"name": "StatefulPartitionedCall/autoencoder/StatefulPartitionedCall/processor_group/add_4/y", "op": "Const", "input": ["^Func/StatefulPartitionedCall/autoencoder/StatefulPartitionedCall/input_control_node/_72"], "attr": {"value": {"tensor": {"dtype": "DT_FLOAT", "tensorShape": {}}}, "dtype": {"type": "DT_FLOAT"}}}, {"name": "StatefulPartitionedCall/autoencoder/StatefulPartitionedCall/processor_group/zeros_like_2/shape_as_tensor", "op": "Const", "input": ["^Func/StatefulPartitionedCall/autoencoder/StatefulPartitionedCall/input_control_node/_72"], "attr": {"value": {"tensor": {"dtype": "DT_INT32", "tensorShape": {"dim": [{"size": "3"}]}}}, "dtype": {"type": "DT_INT32"}}}, {"name": "StatefulPartitionedCall/autoencoder/StatefulPartitionedCall/processor_group/zeros_like_2/Const", "op": "Const", "input": ["^Func/StatefulPartitionedCall/autoencoder/StatefulPartitionedCall/input_control_node/_72"], "attr": {"dtype": {"type": "DT_FLOAT"}, "value": {"tensor": {"dtype": "DT_FLOAT", "tensorShape": {}}}}}, {"name": "StatefulPartitionedCall/autoencoder/StatefulPartitionedCall/processor_group/irfft/fft_length", "op": "Const", "input": ["^Func/StatefulPartitionedCall/autoencoder/StatefulPartitionedCall/input_control_node/_72"], "attr": {"dtype": {"type": "DT_INT32"}, "value": {"tensor": {"dtype": "DT_INT32", "tensorShape": {"dim": [{"size": "1"}]}}}}}, {"name": "StatefulPartitionedCall/autoencoder/StatefulPartitionedCall/processor_group/fftshift_1/floordiv", "op": "Const", "input": ["^Func/StatefulPartitionedCall/autoencoder/StatefulPartitionedCall/input_control_node/_72"], "attr": {"dtype": {"type": "DT_INT32"}, "value": {"tensor": {"dtype": "DT_INT32", "tensorShape": {}}}}}, {"name": "StatefulPartitionedCall/autoencoder/StatefulPartitionedCall/processor_group/fftshift_1/axis", "op": "Const", "input": ["^Func/StatefulPartitionedCall/autoencoder/StatefulPartitionedCall/input_control_node/_72"], "attr": {"value": {"tensor": {"dtype": "DT_INT32", "tensorShape": {}}}, "dtype": {"type": "DT_INT32"}}}, {"name": "StatefulPartitionedCall/autoencoder/StatefulPartitionedCall/processor_group/rfft_1/Pad/paddings", "op": "Const", "input": ["^Func/StatefulPartitionedCall/autoencoder/StatefulPartitionedCall/input_control_node/_72"], "attr": {"value": {"tensor": {"dtype": "DT_INT32", "tensorShape": {"dim": [{"size": "3"}, {"size": "2"}]}}}, "dtype": {"type": "DT_INT32"}}}, {"name": "StatefulPartitionedCall/autoencoder/StatefulPartitionedCall/processor_group/rfft_1/fft_length", "op": "Const", "input": ["^Func/StatefulPartitionedCall/autoencoder/StatefulPartitionedCall/input_control_node/_72"], "attr": {"value": {"tensor": {"dtype": "DT_INT32", "tensorShape": {"dim": [{"size": "1"}]}}}, "dtype": {"type": "DT_INT32"}}}, {"name": "StatefulPartitionedCall/autoencoder/StatefulPartitionedCall/processor_group/irfft_1/fft_length", "op": "Const", "input": ["^Func/StatefulPartitionedCall/autoencoder/StatefulPartitionedCall/input_control_node/_72"], "attr": {"value": {"tensor": {"dtype": "DT_INT32", "tensorShape": {"dim": [{"size": "1"}]}}}, "dtype": {"type": "DT_INT32"}}}, {"name": "StatefulPartitionedCall/autoencoder/StatefulPartitionedCall/processor_group/overlap_and_add_1/concat", "op": "Const", "input": ["^Func/StatefulPartitionedCall/autoencoder/StatefulPartitionedCall/input_control_node/_72"], "attr": {"dtype": {"type": "DT_INT32"}, "value": {"tensor": {"dtype": "DT_INT32", "tensorShape": {"dim": [{"size": "3"}, {"size": "2"}]}}}}}, {"name": "StatefulPartitionedCall/autoencoder/StatefulPartitionedCall/processor_group/overlap_and_add_1/concat_1", "op": "Const", "input": ["^Func/StatefulPartitionedCall/autoencoder/StatefulPartitionedCall/input_control_node/_72"], "attr": {"dtype": {"type": "DT_INT32"}, "value": {"tensor": {"dtype": "DT_INT32", "tensorShape": {"dim": [{"size": "4"}]}}}}}, {"name": "StatefulPartitionedCall/autoencoder/StatefulPartitionedCall/processor_group/overlap_and_add_1/transpose/perm", "op": "Const", "input": ["^Func/StatefulPartitionedCall/autoencoder/StatefulPartitionedCall/input_control_node/_72"], "attr": {"dtype": {"type": "DT_INT32"}, "value": {"tensor": {"dtype": "DT_INT32", "tensorShape": {"dim": [{"size": "4"}]}}}}}, {"name": "StatefulPartitionedCall/autoencoder/StatefulPartitionedCall/processor_group/overlap_and_add_1/concat_3", "op": "Const", "input": ["^Func/StatefulPartitionedCall/autoencoder/StatefulPartitionedCall/input_control_node/_72"], "attr": {"value": {"tensor": {"dtype": "DT_INT32", "tensorShape": {"dim": [{"size": "3"}]}}}, "dtype": {"type": "DT_INT32"}}}, {"name": "StatefulPartitionedCall/autoencoder/StatefulPartitionedCall/processor_group/overlap_and_add_1/strided_slice/stack", "op": "Const", "input": ["^Func/StatefulPartitionedCall/autoencoder/StatefulPartitionedCall/input_control_node/_72"], "attr": {"dtype": {"type": "DT_INT32"}, "value": {"tensor": {"dtype": "DT_INT32", "tensorShape": {"dim": [{"size": "3"}]}}}}}, {"name": "StatefulPartitionedCall/autoencoder/StatefulPartitionedCall/processor_group/overlap_and_add_1/strided_slice/stack_1", "op": "Const", "input": ["^Func/StatefulPartitionedCall/autoencoder/StatefulPartitionedCall/input_control_node/_72"], "attr": {"dtype": {"type": "DT_INT32"}, "value": {"tensor": {"dtype": "DT_INT32", "tensorShape": {"dim": [{"size": "3"}]}}}}}, {"name": "StatefulPartitionedCall/autoencoder/StatefulPartitionedCall/processor_group/overlap_and_add_1/strided_slice/stack_2", "op": "Const", "input": ["^Func/StatefulPartitionedCall/autoencoder/StatefulPartitionedCall/input_control_node/_72"], "attr": {"dtype": {"type": "DT_INT32"}, "value": {"tensor": {"dtype": "DT_INT32", "tensorShape": {"dim": [{"size": "3"}]}}}}}, {"name": "StatefulPartitionedCall/autoencoder/StatefulPartitionedCall/processor_group/overlap_and_add_1/concat_4", "op": "Const", "input": ["^Func/StatefulPartitionedCall/autoencoder/StatefulPartitionedCall/input_control_node/_72"], "attr": {"value": {"tensor": {"dtype": "DT_INT32", "tensorShape": {"dim": [{"size": "4"}]}}}, "dtype": {"type": "DT_INT32"}}}, {"name": "StatefulPartitionedCall/autoencoder/StatefulPartitionedCall/processor_group/overlap_and_add_1/Sum/reduction_indices", "op": "Const", "input": ["^Func/StatefulPartitionedCall/autoencoder/StatefulPartitionedCall/input_control_node/_72"], "attr": {"dtype": {"type": "DT_INT32"}, "value": {"tensor": {"dtype": "DT_INT32", "tensorShape": {}}}}}, {"name": "StatefulPartitionedCall/autoencoder/StatefulPartitionedCall/processor_group/overlap_and_add_1/concat_5", "op": "Const", "input": ["^Func/StatefulPartitionedCall/autoencoder/StatefulPartitionedCall/input_control_node/_72"], "attr": {"dtype": {"type": "DT_INT32"}, "value": {"tensor": {"dtype": "DT_INT32", "tensorShape": {"dim": [{"size": "2"}]}}}}}, {"name": "StatefulPartitionedCall/autoencoder/StatefulPartitionedCall/processor_group/overlap_and_add_1/strided_slice_1/stack", "op": "Const", "input": ["^Func/StatefulPartitionedCall/autoencoder/StatefulPartitionedCall/input_control_node/_72"], "attr": {"dtype": {"type": "DT_INT32"}, "value": {"tensor": {"dtype": "DT_INT32", "tensorShape": {"dim": [{"size": "2"}]}}}}}, {"name": "StatefulPartitionedCall/autoencoder/StatefulPartitionedCall/processor_group/overlap_and_add_1/strided_slice_1/stack_1", "op": "Const", "input": ["^Func/StatefulPartitionedCall/autoencoder/StatefulPartitionedCall/input_control_node/_72"], "attr": {"dtype": {"type": "DT_INT32"}, "value": {"tensor": {"dtype": "DT_INT32", "tensorShape": {"dim": [{"size": "2"}]}}}}}, {"name": "StatefulPartitionedCall/autoencoder/StatefulPartitionedCall/processor_group/overlap_and_add_1/strided_slice_1/stack_2", "op": "Const", "input": ["^Func/StatefulPartitionedCall/autoencoder/StatefulPartitionedCall/input_control_node/_72"], "attr": {"value": {"tensor": {"dtype": "DT_INT32", "tensorShape": {"dim": [{"size": "2"}]}}}, "dtype": {"type": "DT_INT32"}}}, {"name": "StatefulPartitionedCall/autoencoder/StatefulPartitionedCall/processor_group/strided_slice_10/stack", "op": "Const", "input": ["^Func/StatefulPartitionedCall/autoencoder/StatefulPartitionedCall/input_control_node/_72"], "attr": {"dtype": {"type": "DT_INT32"}, "value": {"tensor": {"dtype": "DT_INT32", "tensorShape": {"dim": [{"size": "2"}]}}}}}, {"name": "StatefulPartitionedCall/autoencoder/StatefulPartitionedCall/processor_group/strided_slice_10/stack_1", "op": "Const", "input": ["^Func/StatefulPartitionedCall/autoencoder/StatefulPartitionedCall/input_control_node/_72"], "attr": {"dtype": {"type": "DT_INT32"}, "value": {"tensor": {"dtype": "DT_INT32", "tensorShape": {"dim": [{"size": "2"}]}}}}}, {"name": "StatefulPartitionedCall/autoencoder/StatefulPartitionedCall/processor_group/strided_slice_10/stack_2", "op": "Const", "input": ["^Func/StatefulPartitionedCall/autoencoder/StatefulPartitionedCall/input_control_node/_72"], "attr": {"dtype": {"type": "DT_INT32"}, "value": {"tensor": {"dtype": "DT_INT32", "tensorShape": {"dim": [{"size": "2"}]}}}}}, {"name": "StatefulPartitionedCall/autoencoder/StatefulPartitionedCall/processor_group/GreaterEqual_1/y", "op": "Const", "input": ["^Func/StatefulPartitionedCall/autoencoder/StatefulPartitionedCall/input_control_node/_72"], "attr": {"dtype": {"type": "DT_FLOAT"}, "value": {"tensor": {"dtype": "DT_FLOAT", "tensorShape": {}}}}}, {"name": "StatefulPartitionedCall/autoencoder/StatefulPartitionedCall/processor_group/zeros_like_1/shape_as_tensor", "op": "Const", "input": ["^Func/StatefulPartitionedCall/autoencoder/StatefulPartitionedCall/input_control_node/_72"], "attr": {"dtype": {"type": "DT_INT32"}, "value": {"tensor": {"dtype": "DT_INT32", "tensorShape": {"dim": [{"size": "3"}]}}}}}, {"name": "StatefulPartitionedCall/autoencoder/StatefulPartitionedCall/processor_group/zeros_like_1/Const", "op": "Const", "input": ["^Func/StatefulPartitionedCall/autoencoder/StatefulPartitionedCall/input_control_node/_72"], "attr": {"value": {"tensor": {"dtype": "DT_FLOAT", "tensorShape": {}}}, "dtype": {"type": "DT_FLOAT"}}}, {"name": "StatefulPartitionedCall/autoencoder/StatefulPartitionedCall/processor_group/mul/x", "op": "Const", "input": ["^Func/StatefulPartitionedCall/autoencoder/StatefulPartitionedCall/input_control_node/_72"], "attr": {"value": {"tensor": {"dtype": "DT_FLOAT", "tensorShape": {}}}, "dtype": {"type": "DT_FLOAT"}}}, {"name": "StatefulPartitionedCall/autoencoder/StatefulPartitionedCall/processor_group/Log", "op": "Const", "input": ["^Func/StatefulPartitionedCall/autoencoder/StatefulPartitionedCall/input_control_node/_72"], "attr": {"dtype": {"type": "DT_FLOAT"}, "value": {"tensor": {"dtype": "DT_FLOAT", "tensorShape": {}}}}}, {"name": "StatefulPartitionedCall/autoencoder/StatefulPartitionedCall/processor_group/add/y", "op": "Const", "input": ["^Func/StatefulPartitionedCall/autoencoder/StatefulPartitionedCall/input_control_node/_72"], "attr": {"dtype": {"type": "DT_FLOAT"}, "value": {"tensor": {"dtype": "DT_FLOAT", "tensorShape": {}}}}}, {"name": "StatefulPartitionedCall/autoencoder/StatefulPartitionedCall/processor_group/strided_slice", "op": "Const", "input": ["^Func/StatefulPartitionedCall/autoencoder/StatefulPartitionedCall/input_control_node/_72"], "attr": {"dtype": {"type": "DT_FLOAT"}, "value": {"tensor": {"dtype": "DT_FLOAT", "tensorShape": {"dim": [{"size": "1"}, {"size": "1"}, {"size": "60"}]}}}}}, {"name": "StatefulPartitionedCall/autoencoder/StatefulPartitionedCall/processor_group/GreaterEqual/y", "op": "Const", "input": ["^Func/StatefulPartitionedCall/autoencoder/StatefulPartitionedCall/input_control_node/_72"], "attr": {"dtype": {"type": "DT_FLOAT"}, "value": {"tensor": {"dtype": "DT_FLOAT", "tensorShape": {}}}}}, {"name": "StatefulPartitionedCall/autoencoder/StatefulPartitionedCall/processor_group/zeros_like/shape_as_tensor", "op": "Const", "input": ["^Func/StatefulPartitionedCall/autoencoder/StatefulPartitionedCall/input_control_node/_72"], "attr": {"dtype": {"type": "DT_INT32"}, "value": {"tensor": {"dtype": "DT_INT32", "tensorShape": {"dim": [{"size": "3"}]}}}}}, {"name": "StatefulPartitionedCall/autoencoder/StatefulPartitionedCall/processor_group/zeros_like/Const", "op": "Const", "input": ["^Func/StatefulPartitionedCall/autoencoder/StatefulPartitionedCall/input_control_node/_72"], "attr": {"value": {"tensor": {"dtype": "DT_FLOAT", "tensorShape": {}}}, "dtype": {"type": "DT_FLOAT"}}}, {"name": "StatefulPartitionedCall/autoencoder/StatefulPartitionedCall/processor_group/mul_1/x", "op": "Const", "input": ["^Func/StatefulPartitionedCall/autoencoder/StatefulPartitionedCall/input_control_node/_72"], "attr": {"value": {"tensor": {"dtype": "DT_FLOAT", "tensorShape": {}}}, "dtype": {"type": "DT_FLOAT"}}}, {"name": "Func/StatefulPartitionedCall/autoencoder/StatefulPartitionedCall/input/_140", "op": "Const", "input": ["^Func/StatefulPartitionedCall/autoencoder/StatefulPartitionedCall/input_control_node/_72"], "attr": {"dtype": {"type": "DT_FLOAT"}, "value": {"tensor": {"dtype": "DT_FLOAT", "tensorShape": {"dim": [{"size": "1"}, {"size": "1"}, {"size": "1"}, {"size": "128"}]}}}}}, {"name": "Func/StatefulPartitionedCall/autoencoder/StatefulPartitionedCall/input/_136", "op": "Const", "input": ["^Func/StatefulPartitionedCall/autoencoder/StatefulPartitionedCall/input_control_node/_72"], "attr": {"value": {"tensor": {"dtype": "DT_FLOAT", "tensorShape": {"dim": [{"size": "1"}, {"size": "1"}, {"size": "1"}, {"size": "128"}]}}}, "dtype": {"type": "DT_FLOAT"}}}, {"name": "Func/StatefulPartitionedCall/autoencoder/StatefulPartitionedCall/input/_132", "op": "Const", "input": ["^Func/StatefulPartitionedCall/autoencoder/StatefulPartitionedCall/input_control_node/_72"], "attr": {"value": {"tensor": {"dtype": "DT_FLOAT", "tensorShape": {"dim": [{"size": "1"}, {"size": "1"}, {"size": "1"}, {"size": "128"}]}}}, "dtype": {"type": "DT_FLOAT"}}}, {"name": "Func/StatefulPartitionedCall/autoencoder/StatefulPartitionedCall/input/_128", "op": "Const", "input": ["^Func/StatefulPartitionedCall/autoencoder/StatefulPartitionedCall/input_control_node/_72"], "attr": {"dtype": {"type": "DT_FLOAT"}, "value": {"tensor": {"dtype": "DT_FLOAT", "tensorShape": {"dim": [{"size": "1"}, {"size": "1"}, {"size": "1"}, {"size": "128"}]}}}}}, {"name": "Func/StatefulPartitionedCall/autoencoder/StatefulPartitionedCall/input/_124", "op": "Const", "input": ["^Func/StatefulPartitionedCall/autoencoder/StatefulPartitionedCall/input_control_node/_72"], "attr": {"value": {"tensor": {"dtype": "DT_FLOAT", "tensorShape": {"dim": [{"size": "1"}, {"size": "1"}, {"size": "1"}, {"size": "128"}]}}}, "dtype": {"type": "DT_FLOAT"}}}, {"name": "Func/StatefulPartitionedCall/autoencoder/StatefulPartitionedCall/input/_120", "op": "Const", "input": ["^Func/StatefulPartitionedCall/autoencoder/StatefulPartitionedCall/input_control_node/_72"], "attr": {"dtype": {"type": "DT_FLOAT"}, "value": {"tensor": {"dtype": "DT_FLOAT", "tensorShape": {"dim": [{"size": "1"}, {"size": "1"}, {"size": "1"}, {"size": "128"}]}}}}}, {"name": "Func/StatefulPartitionedCall/autoencoder/StatefulPartitionedCall/input/_116", "op": "Const", "input": ["^Func/StatefulPartitionedCall/autoencoder/StatefulPartitionedCall/input_control_node/_72"], "attr": {"dtype": {"type": "DT_FLOAT"}, "value": {"tensor": {"dtype": "DT_FLOAT", "tensorShape": {"dim": [{"size": "1"}, {"size": "1"}, {"size": "1"}, {"size": "128"}]}}}}}, {"name": "Func/StatefulPartitionedCall/autoencoder/StatefulPartitionedCall/input/_112", "op": "Const", "input": ["^Func/StatefulPartitionedCall/autoencoder/StatefulPartitionedCall/input_control_node/_72"], "attr": {"value": {"tensor": {"dtype": "DT_FLOAT", "tensorShape": {"dim": [{"size": "1"}, {"size": "1"}, {"size": "1"}, {"size": "128"}]}}}, "dtype": {"type": "DT_FLOAT"}}}, {"name": "Func/StatefulPartitionedCall/autoencoder/StatefulPartitionedCall/input/_108", "op": "Const", "input": ["^Func/StatefulPartitionedCall/autoencoder/StatefulPartitionedCall/input_control_node/_72"], "attr": {"value": {"tensor": {"dtype": "DT_FLOAT", "tensorShape": {"dim": [{"size": "1"}, {"size": "1"}, {"size": "1"}, {"size": "128"}]}}}, "dtype": {"type": "DT_FLOAT"}}}, {"name": "Func/StatefulPartitionedCall/autoencoder/StatefulPartitionedCall/input/_104", "op": "Const", "input": ["^Func/StatefulPartitionedCall/autoencoder/StatefulPartitionedCall/input_control_node/_72"], "attr": {"value": {"tensor": {"dtype": "DT_FLOAT", "tensorShape": {"dim": [{"size": "1"}, {"size": "1"}, {"size": "1"}, {"size": "128"}]}}}, "dtype": {"type": "DT_FLOAT"}}}, {"name": "Func/StatefulPartitionedCall/autoencoder/StatefulPartitionedCall/input/_100", "op": "Const", "input": ["^Func/StatefulPartitionedCall/autoencoder/StatefulPartitionedCall/input_control_node/_72"], "attr": {"dtype": {"type": "DT_FLOAT"}, "value": {"tensor": {"dtype": "DT_FLOAT", "tensorShape": {"dim": [{"size": "1"}, {"size": "1"}, {"size": "1"}, {"size": "128"}]}}}}}, {"name": "Func/StatefulPartitionedCall/autoencoder/StatefulPartitionedCall/input/_96", "op": "Const", "input": ["^Func/StatefulPartitionedCall/autoencoder/StatefulPartitionedCall/input_control_node/_72"], "attr": {"value": {"tensor": {"dtype": "DT_FLOAT", "tensorShape": {"dim": [{"size": "1"}, {"size": "1"}, {"size": "1"}, {"size": "128"}]}}}, "dtype": {"type": "DT_FLOAT"}}}, {"name": "Func/StatefulPartitionedCall/autoencoder/StatefulPartitionedCall/input/_92", "op": "Const", "input": ["^Func/StatefulPartitionedCall/autoencoder/StatefulPartitionedCall/input_control_node/_72"], "attr": {"dtype": {"type": "DT_FLOAT"}, "value": {"tensor": {"dtype": "DT_FLOAT", "tensorShape": {"dim": [{"size": "1"}, {"size": "1"}, {"size": "1"}, {"size": "128"}]}}}}}, {"name": "Func/StatefulPartitionedCall/autoencoder/StatefulPartitionedCall/input/_88", "op": "Const", "input": ["^Func/StatefulPartitionedCall/autoencoder/StatefulPartitionedCall/input_control_node/_72"], "attr": {"dtype": {"type": "DT_FLOAT"}, "value": {"tensor": {"dtype": "DT_FLOAT", "tensorShape": {"dim": [{"size": "1"}, {"size": "1"}, {"size": "1"}, {"size": "128"}]}}}}}, {"name": "Func/StatefulPartitionedCall/autoencoder/StatefulPartitionedCall/input/_84", "op": "Const", "input": ["^Func/StatefulPartitionedCall/autoencoder/StatefulPartitionedCall/input_control_node/_72"], "attr": {"dtype": {"type": "DT_FLOAT"}, "value": {"tensor": {"dtype": "DT_FLOAT", "tensorShape": {"dim": [{"size": "1"}, {"size": "1"}, {"size": "1"}, {"size": "128"}]}}}}}, {"name": "Func/StatefulPartitionedCall/autoencoder/StatefulPartitionedCall/input/_80", "op": "Const", "input": ["^Func/StatefulPartitionedCall/autoencoder/StatefulPartitionedCall/input_control_node/_72"], "attr": {"dtype": {"type": "DT_FLOAT"}, "value": {"tensor": {"dtype": "DT_FLOAT", "tensorShape": {"dim": [{"size": "1"}, {"size": "1"}, {"size": "1"}, {"size": "128"}]}}}}}, {"name": "StatefulPartitionedCall/autoencoder/StatefulPartitionedCall/strided_slice/stack", "op": "Const", "input": ["^Func/StatefulPartitionedCall/autoencoder/StatefulPartitionedCall/input_control_node/_72"], "attr": {"value": {"tensor": {"dtype": "DT_INT32", "tensorShape": {"dim": [{"size": "2"}]}}}, "dtype": {"type": "DT_INT32"}}}, {"name": "StatefulPartitionedCall/autoencoder/StatefulPartitionedCall/strided_slice/stack_1", "op": "Const", "input": ["^Func/StatefulPartitionedCall/autoencoder/StatefulPartitionedCall/input_control_node/_72"], "attr": {"dtype": {"type": "DT_INT32"}, "value": {"tensor": {"dtype": "DT_INT32", "tensorShape": {"dim": [{"size": "2"}]}}}}}, {"name": "StatefulPartitionedCall/autoencoder/StatefulPartitionedCall/strided_slice/stack_2", "op": "Const", "input": ["^Func/StatefulPartitionedCall/autoencoder/StatefulPartitionedCall/input_control_node/_72"], "attr": {"dtype": {"type": "DT_INT32"}, "value": {"tensor": {"dtype": "DT_INT32", "tensorShape": {"dim": [{"size": "2"}]}}}}}, {"name": "StatefulPartitionedCall/autoencoder/StatefulPartitionedCall/strided_slice_1/stack", "op": "Const", "input": ["^Func/StatefulPartitionedCall/autoencoder/StatefulPartitionedCall/input_control_node/_72"], "attr": {"value": {"tensor": {"dtype": "DT_INT32", "tensorShape": {"dim": [{"size": "3"}]}}}, "dtype": {"type": "DT_INT32"}}}, {"name": "StatefulPartitionedCall/autoencoder/StatefulPartitionedCall/strided_slice_1/stack_1", "op": "Const", "input": ["^Func/StatefulPartitionedCall/autoencoder/StatefulPartitionedCall/input_control_node/_72"], "attr": {"dtype": {"type": "DT_INT32"}, "value": {"tensor": {"dtype": "DT_INT32", "tensorShape": {"dim": [{"size": "3"}]}}}}}, {"name": "StatefulPartitionedCall/autoencoder/StatefulPartitionedCall/strided_slice_1/stack_2", "op": "Const", "input": ["^Func/StatefulPartitionedCall/autoencoder/StatefulPartitionedCall/input_control_node/_72"], "attr": {"dtype": {"type": "DT_INT32"}, "value": {"tensor": {"dtype": "DT_INT32", "tensorShape": {"dim": [{"size": "3"}]}}}}}, {"name": "StatefulPartitionedCall/autoencoder/StatefulPartitionedCall/strided_slice_2/stack", "op": "Const", "input": ["^Func/StatefulPartitionedCall/autoencoder/StatefulPartitionedCall/input_control_node/_72"], "attr": {"dtype": {"type": "DT_INT32"}, "value": {"tensor": {"dtype": "DT_INT32", "tensorShape": {"dim": [{"size": "4"}]}}}}}, {"name": "StatefulPartitionedCall/autoencoder/StatefulPartitionedCall/strided_slice_2/stack_1", "op": "Const", "input": ["^Func/StatefulPartitionedCall/autoencoder/StatefulPartitionedCall/input_control_node/_72"], "attr": {"dtype": {"type": "DT_INT32"}, "value": {"tensor": {"dtype": "DT_INT32", "tensorShape": {"dim": [{"size": "4"}]}}}}}, {"name": "StatefulPartitionedCall/autoencoder/StatefulPartitionedCall/strided_slice_2/stack_2", "op": "Const", "input": ["^Func/StatefulPartitionedCall/autoencoder/StatefulPartitionedCall/input_control_node/_72"], "attr": {"dtype": {"type": "DT_INT32"}, "value": {"tensor": {"dtype": "DT_INT32", "tensorShape": {"dim": [{"size": "4"}]}}}}}, {"name": "StatefulPartitionedCall/autoencoder/StatefulPartitionedCall/resize/size", "op": "Const", "input": ["^Func/StatefulPartitionedCall/autoencoder/StatefulPartitionedCall/input_control_node/_72"], "attr": {"value": {"tensor": {"dtype": "DT_INT32", "tensorShape": {"dim": [{"size": "2"}]}}}, "dtype": {"type": "DT_INT32"}}}, {"name": "StatefulPartitionedCall/autoencoder/StatefulPartitionedCall/strided_slice_3/stack", "op": "Const", "input": ["^Func/StatefulPartitionedCall/autoencoder/StatefulPartitionedCall/input_control_node/_72"], "attr": {"value": {"tensor": {"dtype": "DT_INT32", "tensorShape": {"dim": [{"size": "4"}]}}}, "dtype": {"type": "DT_INT32"}}}, {"name": "StatefulPartitionedCall/autoencoder/StatefulPartitionedCall/strided_slice_3/stack_1", "op": "Const", "input": ["^Func/StatefulPartitionedCall/autoencoder/StatefulPartitionedCall/input_control_node/_72"], "attr": {"value": {"tensor": {"dtype": "DT_INT32", "tensorShape": {"dim": [{"size": "4"}]}}}, "dtype": {"type": "DT_INT32"}}}, {"name": "StatefulPartitionedCall/autoencoder/StatefulPartitionedCall/strided_slice_3/stack_2", "op": "Const", "input": ["^Func/StatefulPartitionedCall/autoencoder/StatefulPartitionedCall/input_control_node/_72"], "attr": {"dtype": {"type": "DT_INT32"}, "value": {"tensor": {"dtype": "DT_INT32", "tensorShape": {"dim": [{"size": "4"}]}}}}}, {"name": "ConstantFolding/StatefulPartitionedCall/autoencoder/StatefulPartitionedCall/truediv_3_recip", "op": "Const", "input": ["^Func/StatefulPartitionedCall/autoencoder/StatefulPartitionedCall/input_control_node/_72"], "attr": {"dtype": {"type": "DT_FLOAT"}, "value": {"tensor": {"dtype": "DT_FLOAT", "tensorShape": {}}}}}, {"name": "StatefulPartitionedCall/autoencoder/StatefulPartitionedCall/add_1/y", "op": "Const", "input": ["^Func/StatefulPartitionedCall/autoencoder/StatefulPartitionedCall/input_control_node/_72"], "attr": {"dtype": {"type": "DT_FLOAT"}, "value": {"tensor": {"dtype": "DT_FLOAT", "tensorShape": {}}}}}, {"name": "StatefulPartitionedCall/autoencoder/StatefulPartitionedCall/LessEqual/y", "op": "Const", "input": ["^Func/StatefulPartitionedCall/autoencoder/StatefulPartitionedCall/input_control_node/_72"], "attr": {"dtype": {"type": "DT_FLOAT"}, "value": {"tensor": {"dtype": "DT_FLOAT", "tensorShape": {}}}}}, {"name": "StatefulPartitionedCall/autoencoder/StatefulPartitionedCall/SelectV2/t", "op": "Const", "input": ["^Func/StatefulPartitionedCall/autoencoder/StatefulPartitionedCall/input_control_node/_72"], "attr": {"dtype": {"type": "DT_FLOAT"}, "value": {"tensor": {"dtype": "DT_FLOAT", "tensorShape": {}}}}}, {"name": "StatefulPartitionedCall/autoencoder/StatefulPartitionedCall/mul/x", "op": "Const", "input": ["^Func/StatefulPartitionedCall/autoencoder/StatefulPartitionedCall/input_control_node/_72"], "attr": {"value": {"tensor": {"dtype": "DT_FLOAT", "tensorShape": {}}}, "dtype": {"type": "DT_FLOAT"}}}, {"name": "ConstantFolding/StatefulPartitionedCall/autoencoder/StatefulPartitionedCall/truediv_recip", "op": "Const", "input": ["^Func/StatefulPartitionedCall/autoencoder/StatefulPartitionedCall/input_control_node/_72"], "attr": {"value": {"tensor": {"dtype": "DT_FLOAT", "tensorShape": {}}}, "dtype": {"type": "DT_FLOAT"}}}, {"name": "StatefulPartitionedCall/autoencoder/StatefulPartitionedCall/truediv_1", "op": "Const", "input": ["^Func/StatefulPartitionedCall/autoencoder/StatefulPartitionedCall/input_control_node/_72"], "attr": {"value": {"tensor": {"dtype": "DT_FLOAT", "tensorShape": {}}}, "dtype": {"type": "DT_FLOAT"}}}, {"name": "StatefulPartitionedCall/autoencoder/StatefulPartitionedCall/add/y", "op": "Const", "input": ["^Func/StatefulPartitionedCall/autoencoder/StatefulPartitionedCall/input_control_node/_72"], "attr": {"dtype": {"type": "DT_FLOAT"}, "value": {"tensor": {"dtype": "DT_FLOAT", "tensorShape": {}}}}}, {"name": "ConstantFolding/StatefulPartitionedCall/autoencoder/StatefulPartitionedCall/truediv_2_recip", "op": "Const", "input": ["^Func/StatefulPartitionedCall/autoencoder/StatefulPartitionedCall/input_control_node/_72"], "attr": {"dtype": {"type": "DT_FLOAT"}, "value": {"tensor": {"dtype": "DT_FLOAT", "tensorShape": {}}}}}, {"name": "StatefulPartitionedCall/autoencoder/StatefulPartitionedCall/dilated_conv_decoder/concat/axis", "op": "Const", "input": ["^Func/StatefulPartitionedCall/autoencoder/StatefulPartitionedCall/input_control_node/_72"], "attr": {"dtype": {"type": "DT_INT32"}, "value": {"tensor": {"dtype": "DT_INT32", "tensorShape": {}}}}}, {"name": "StatefulPartitionedCall/autoencoder/StatefulPartitionedCall/dilated_conv_decoder/dilated_conv_stack/strided_slice/stack", "op": "Const", "input": ["^Func/StatefulPartitionedCall/autoencoder/StatefulPartitionedCall/input_control_node/_72"], "attr": {"dtype": {"type": "DT_INT32"}, "value": {"tensor": {"dtype": "DT_INT32", "tensorShape": {"dim": [{"size": "4"}]}}}}}, {"name": "StatefulPartitionedCall/autoencoder/StatefulPartitionedCall/dilated_conv_decoder/dilated_conv_stack/strided_slice/stack_1", "op": "Const", "input": ["^Func/StatefulPartitionedCall/autoencoder/StatefulPartitionedCall/input_control_node/_72"], "attr": {"dtype": {"type": "DT_INT32"}, "value": {"tensor": {"dtype": "DT_INT32", "tensorShape": {"dim": [{"size": "4"}]}}}}}, {"name": "StatefulPartitionedCall/autoencoder/StatefulPartitionedCall/dilated_conv_decoder/dilated_conv_stack/strided_slice/stack_2", "op": "Const", "input": ["^Func/StatefulPartitionedCall/autoencoder/StatefulPartitionedCall/input_control_node/_72"], "attr": {"dtype": {"type": "DT_INT32"}, "value": {"tensor": {"dtype": "DT_INT32", "tensorShape": {"dim": [{"size": "4"}]}}}}}, {"name": "Func/StatefulPartitionedCall/autoencoder/StatefulPartitionedCall/input/_75", "op": "Const", "input": ["^Func/StatefulPartitionedCall/autoencoder/StatefulPartitionedCall/input_control_node/_72"], "attr": {"dtype": {"type": "DT_FLOAT"}, "value": {"tensor": {"dtype": "DT_FLOAT", "tensorShape": {"dim": [{"size": "3"}, {"size": "1"}, {"size": "2"}, {"size": "128"}]}}}}}, {"name": "Func/StatefulPartitionedCall/autoencoder/StatefulPartitionedCall/input/_76", "op": "Const", "input": ["^Func/StatefulPartitionedCall/autoencoder/StatefulPartitionedCall/input_control_node/_72"], "attr": {"value": {"tensor": {"dtype": "DT_FLOAT", "tensorShape": {"dim": [{"size": "128"}]}}}, "dtype": {"type": "DT_FLOAT"}}}, {"name": "Func/StatefulPartitionedCall/autoencoder/StatefulPartitionedCall/input/_77", "op": "Const", "input": ["^Func/StatefulPartitionedCall/autoencoder/StatefulPartitionedCall/input_control_node/_72"], "attr": {"value": {"tensor": {"dtype": "DT_FLOAT", "tensorShape": {"dim": [{"size": "3"}, {"size": "1"}, {"size": "128"}, {"size": "128"}]}}}, "dtype": {"type": "DT_FLOAT"}}}, {"name": "Func/StatefulPartitionedCall/autoencoder/StatefulPartitionedCall/input/_78", "op": "Const", "input": ["^Func/StatefulPartitionedCall/autoencoder/StatefulPartitionedCall/input_control_node/_72"], "attr": {"dtype": {"type": "DT_FLOAT"}, "value": {"tensor": {"dtype": "DT_FLOAT", "tensorShape": {"dim": [{"size": "128"}]}}}}}, {"name": "StatefulPartitionedCall/autoencoder/StatefulPartitionedCall/dilated_conv_decoder/dilated_conv_stack/normalize/Reshape/shape", "op": "Const", "input": ["^Func/StatefulPartitionedCall/autoencoder/StatefulPartitionedCall/input_control_node/_72"], "attr": {"value": {"tensor": {"dtype": "DT_INT32", "tensorShape": {"dim": [{"size": "5"}]}}}, "dtype": {"type": "DT_INT32"}}}, {"name": "StatefulPartitionedCall/autoencoder/StatefulPartitionedCall/dilated_conv_decoder/dilated_conv_stack/normalize/moments/mean/reduction_indices", "op": "Const", "input": ["^Func/StatefulPartitionedCall/autoencoder/StatefulPartitionedCall/input_control_node/_72"], "attr": {"value": {"tensor": {"dtype": "DT_INT32", "tensorShape": {"dim": [{"size": "3"}]}}}, "dtype": {"type": "DT_INT32"}}}, {"name": "StatefulPartitionedCall/autoencoder/StatefulPartitionedCall/dilated_conv_decoder/dilated_conv_stack/normalize/moments/variance/reduction_indices", "op": "Const", "input": ["^Func/StatefulPartitionedCall/autoencoder/StatefulPartitionedCall/input_control_node/_72"], "attr": {"dtype": {"type": "DT_INT32"}, "value": {"tensor": {"dtype": "DT_INT32", "tensorShape": {"dim": [{"size": "3"}]}}}}}, {"name": "StatefulPartitionedCall/autoencoder/StatefulPartitionedCall/dilated_conv_decoder/dilated_conv_stack/normalize/add/y", "op": "Const", "input": ["^Func/StatefulPartitionedCall/autoencoder/StatefulPartitionedCall/input_control_node/_72"], "attr": {"value": {"tensor": {"dtype": "DT_FLOAT", "tensorShape": {}}}, "dtype": {"type": "DT_FLOAT"}}}, {"name": "StatefulPartitionedCall/autoencoder/StatefulPartitionedCall/dilated_conv_decoder/dilated_conv_stack/normalize/Reshape_1/shape", "op": "Const", "input": ["^Func/StatefulPartitionedCall/autoencoder/StatefulPartitionedCall/input_control_node/_72"], "attr": {"value": {"tensor": {"dtype": "DT_INT32", "tensorShape": {"dim": [{"size": "4"}]}}}, "dtype": {"type": "DT_INT32"}}}, {"name": "Func/StatefulPartitionedCall/autoencoder/StatefulPartitionedCall/input/_79", "op": "Const", "input": ["^Func/StatefulPartitionedCall/autoencoder/StatefulPartitionedCall/input_control_node/_72"], "attr": {"value": {"tensor": {"dtype": "DT_FLOAT", "tensorShape": {"dim": [{"size": "1"}, {"size": "1"}, {"size": "1"}, {"size": "128"}]}}}, "dtype": {"type": "DT_FLOAT"}}}, {"name": "StatefulPartitionedCall/autoencoder/StatefulPartitionedCall/dilated_conv_decoder/dilated_conv_stack/dilated_conv/conv2d_2/Conv2D/SpaceToBatchND/block_shape", "op": "Const", "input": ["^Func/StatefulPartitionedCall/autoencoder/StatefulPartitionedCall/input_control_node/_72"], "attr": {"dtype": {"type": "DT_INT32"}, "value": {"tensor": {"dtype": "DT_INT32", "tensorShape": {"dim": [{"size": "2"}]}}}}}, {"name": "StatefulPartitionedCall/autoencoder/StatefulPartitionedCall/dilated_conv_decoder/dilated_conv_stack/dilated_conv/conv2d_2/Conv2D/SpaceToBatchND/paddings", "op": "Const", "input": ["^Func/StatefulPartitionedCall/autoencoder/StatefulPartitionedCall/input_control_node/_72"], "attr": {"value": {"tensor": {"dtype": "DT_INT32", "tensorShape": {"dim": [{"size": "2"}, {"size": "2"}]}}}, "dtype": {"type": "DT_INT32"}}}, {"name": "Func/StatefulPartitionedCall/autoencoder/StatefulPartitionedCall/input/_81", "op": "Const", "input": ["^Func/StatefulPartitionedCall/autoencoder/StatefulPartitionedCall/input_control_node/_72"], "attr": {"value": {"tensor": {"dtype": "DT_FLOAT", "tensorShape": {"dim": [{"size": "3"}, {"size": "1"}, {"size": "128"}, {"size": "128"}]}}}, "dtype": {"type": "DT_FLOAT"}}}, {"name": "StatefulPartitionedCall/autoencoder/StatefulPartitionedCall/dilated_conv_decoder/dilated_conv_stack/dilated_conv/conv2d_2/Conv2D/BatchToSpaceND/block_shape", "op": "Const", "input": ["^Func/StatefulPartitionedCall/autoencoder/StatefulPartitionedCall/input_control_node/_72"], "attr": {"value": {"tensor": {"dtype": "DT_INT32", "tensorShape": {"dim": [{"size": "2"}]}}}, "dtype": {"type": "DT_INT32"}}}, {"name": "StatefulPartitionedCall/autoencoder/StatefulPartitionedCall/dilated_conv_decoder/dilated_conv_stack/dilated_conv/conv2d_2/Conv2D/BatchToSpaceND/crops", "op": "Const", "input": ["^Func/StatefulPartitionedCall/autoencoder/StatefulPartitionedCall/input_control_node/_72"], "attr": {"value": {"tensor": {"dtype": "DT_INT32", "tensorShape": {"dim": [{"size": "2"}, {"size": "2"}]}}}, "dtype": {"type": "DT_INT32"}}}, {"name": "Func/StatefulPartitionedCall/autoencoder/StatefulPartitionedCall/input/_82", "op": "Const", "input": ["^Func/StatefulPartitionedCall/autoencoder/StatefulPartitionedCall/input_control_node/_72"], "attr": {"dtype": {"type": "DT_FLOAT"}, "value": {"tensor": {"dtype": "DT_FLOAT", "tensorShape": {"dim": [{"size": "128"}]}}}}}, {"name": "StatefulPartitionedCall/autoencoder/StatefulPartitionedCall/dilated_conv_decoder/dilated_conv_stack/normalize_1/Reshape/shape", "op": "Const", "input": ["^Func/StatefulPartitionedCall/autoencoder/StatefulPartitionedCall/input_control_node/_72"], "attr": {"value": {"tensor": {"dtype": "DT_INT32", "tensorShape": {"dim": [{"size": "5"}]}}}, "dtype": {"type": "DT_INT32"}}}, {"name": "StatefulPartitionedCall/autoencoder/StatefulPartitionedCall/dilated_conv_decoder/dilated_conv_stack/normalize_1/moments/mean/reduction_indices", "op": "Const", "input": ["^Func/StatefulPartitionedCall/autoencoder/StatefulPartitionedCall/input_control_node/_72"], "attr": {"value": {"tensor": {"dtype": "DT_INT32", "tensorShape": {"dim": [{"size": "3"}]}}}, "dtype": {"type": "DT_INT32"}}}, {"name": "StatefulPartitionedCall/autoencoder/StatefulPartitionedCall/dilated_conv_decoder/dilated_conv_stack/normalize_1/moments/variance/reduction_indices", "op": "Const", "input": ["^Func/StatefulPartitionedCall/autoencoder/StatefulPartitionedCall/input_control_node/_72"], "attr": {"dtype": {"type": "DT_INT32"}, "value": {"tensor": {"dtype": "DT_INT32", "tensorShape": {"dim": [{"size": "3"}]}}}}}, {"name": "StatefulPartitionedCall/autoencoder/StatefulPartitionedCall/dilated_conv_decoder/dilated_conv_stack/normalize_1/add/y", "op": "Const", "input": ["^Func/StatefulPartitionedCall/autoencoder/StatefulPartitionedCall/input_control_node/_72"], "attr": {"dtype": {"type": "DT_FLOAT"}, "value": {"tensor": {"dtype": "DT_FLOAT", "tensorShape": {}}}}}, {"name": "StatefulPartitionedCall/autoencoder/StatefulPartitionedCall/dilated_conv_decoder/dilated_conv_stack/normalize_1/Reshape_1/shape", "op": "Const", "input": ["^Func/StatefulPartitionedCall/autoencoder/StatefulPartitionedCall/input_control_node/_72"], "attr": {"value": {"tensor": {"dtype": "DT_INT32", "tensorShape": {"dim": [{"size": "4"}]}}}, "dtype": {"type": "DT_INT32"}}}, {"name": "Func/StatefulPartitionedCall/autoencoder/StatefulPartitionedCall/input/_83", "op": "Const", "input": ["^Func/StatefulPartitionedCall/autoencoder/StatefulPartitionedCall/input_control_node/_72"], "attr": {"value": {"tensor": {"dtype": "DT_FLOAT", "tensorShape": {"dim": [{"size": "1"}, {"size": "1"}, {"size": "1"}, {"size": "128"}]}}}, "dtype": {"type": "DT_FLOAT"}}}, {"name": "StatefulPartitionedCall/autoencoder/StatefulPartitionedCall/dilated_conv_decoder/dilated_conv_stack/dilated_conv/conv2d_3/Conv2D/SpaceToBatchND/block_shape", "op": "Const", "input": ["^Func/StatefulPartitionedCall/autoencoder/StatefulPartitionedCall/input_control_node/_72"], "attr": {"dtype": {"type": "DT_INT32"}, "value": {"tensor": {"dtype": "DT_INT32", "tensorShape": {"dim": [{"size": "2"}]}}}}}, {"name": "StatefulPartitionedCall/autoencoder/StatefulPartitionedCall/dilated_conv_decoder/dilated_conv_stack/dilated_conv/conv2d_3/Conv2D/SpaceToBatchND/paddings", "op": "Const", "input": ["^Func/StatefulPartitionedCall/autoencoder/StatefulPartitionedCall/input_control_node/_72"], "attr": {"dtype": {"type": "DT_INT32"}, "value": {"tensor": {"dtype": "DT_INT32", "tensorShape": {"dim": [{"size": "2"}, {"size": "2"}]}}}}}, {"name": "Func/StatefulPartitionedCall/autoencoder/StatefulPartitionedCall/input/_85", "op": "Const", "input": ["^Func/StatefulPartitionedCall/autoencoder/StatefulPartitionedCall/input_control_node/_72"], "attr": {"value": {"tensor": {"dtype": "DT_FLOAT", "tensorShape": {"dim": [{"size": "3"}, {"size": "1"}, {"size": "128"}, {"size": "128"}]}}}, "dtype": {"type": "DT_FLOAT"}}}, {"name": "StatefulPartitionedCall/autoencoder/StatefulPartitionedCall/dilated_conv_decoder/dilated_conv_stack/dilated_conv/conv2d_3/Conv2D/BatchToSpaceND/block_shape", "op": "Const", "input": ["^Func/StatefulPartitionedCall/autoencoder/StatefulPartitionedCall/input_control_node/_72"], "attr": {"dtype": {"type": "DT_INT32"}, "value": {"tensor": {"dtype": "DT_INT32", "tensorShape": {"dim": [{"size": "2"}]}}}}}, {"name": "StatefulPartitionedCall/autoencoder/StatefulPartitionedCall/dilated_conv_decoder/dilated_conv_stack/dilated_conv/conv2d_3/Conv2D/BatchToSpaceND/crops", "op": "Const", "input": ["^Func/StatefulPartitionedCall/autoencoder/StatefulPartitionedCall/input_control_node/_72"], "attr": {"dtype": {"type": "DT_INT32"}, "value": {"tensor": {"dtype": "DT_INT32", "tensorShape": {"dim": [{"size": "2"}, {"size": "2"}]}}}}}, {"name": "Func/StatefulPartitionedCall/autoencoder/StatefulPartitionedCall/input/_86", "op": "Const", "input": ["^Func/StatefulPartitionedCall/autoencoder/StatefulPartitionedCall/input_control_node/_72"], "attr": {"dtype": {"type": "DT_FLOAT"}, "value": {"tensor": {"dtype": "DT_FLOAT", "tensorShape": {"dim": [{"size": "128"}]}}}}}, {"name": "StatefulPartitionedCall/autoencoder/StatefulPartitionedCall/dilated_conv_decoder/dilated_conv_stack/normalize_2/Reshape/shape", "op": "Const", "input": ["^Func/StatefulPartitionedCall/autoencoder/StatefulPartitionedCall/input_control_node/_72"], "attr": {"value": {"tensor": {"dtype": "DT_INT32", "tensorShape": {"dim": [{"size": "5"}]}}}, "dtype": {"type": "DT_INT32"}}}, {"name": "StatefulPartitionedCall/autoencoder/StatefulPartitionedCall/dilated_conv_decoder/dilated_conv_stack/normalize_2/moments/mean/reduction_indices", "op": "Const", "input": ["^Func/StatefulPartitionedCall/autoencoder/StatefulPartitionedCall/input_control_node/_72"], "attr": {"value": {"tensor": {"dtype": "DT_INT32", "tensorShape": {"dim": [{"size": "3"}]}}}, "dtype": {"type": "DT_INT32"}}}, {"name": "StatefulPartitionedCall/autoencoder/StatefulPartitionedCall/dilated_conv_decoder/dilated_conv_stack/normalize_2/moments/variance/reduction_indices", "op": "Const", "input": ["^Func/StatefulPartitionedCall/autoencoder/StatefulPartitionedCall/input_control_node/_72"], "attr": {"value": {"tensor": {"dtype": "DT_INT32", "tensorShape": {"dim": [{"size": "3"}]}}}, "dtype": {"type": "DT_INT32"}}}, {"name": "StatefulPartitionedCall/autoencoder/StatefulPartitionedCall/dilated_conv_decoder/dilated_conv_stack/normalize_2/add/y", "op": "Const", "input": ["^Func/StatefulPartitionedCall/autoencoder/StatefulPartitionedCall/input_control_node/_72"], "attr": {"value": {"tensor": {"dtype": "DT_FLOAT", "tensorShape": {}}}, "dtype": {"type": "DT_FLOAT"}}}, {"name": "StatefulPartitionedCall/autoencoder/StatefulPartitionedCall/dilated_conv_decoder/dilated_conv_stack/normalize_2/Reshape_1/shape", "op": "Const", "input": ["^Func/StatefulPartitionedCall/autoencoder/StatefulPartitionedCall/input_control_node/_72"], "attr": {"value": {"tensor": {"dtype": "DT_INT32", "tensorShape": {"dim": [{"size": "4"}]}}}, "dtype": {"type": "DT_INT32"}}}, {"name": "Func/StatefulPartitionedCall/autoencoder/StatefulPartitionedCall/input/_87", "op": "Const", "input": ["^Func/StatefulPartitionedCall/autoencoder/StatefulPartitionedCall/input_control_node/_72"], "attr": {"dtype": {"type": "DT_FLOAT"}, "value": {"tensor": {"dtype": "DT_FLOAT", "tensorShape": {"dim": [{"size": "1"}, {"size": "1"}, {"size": "1"}, {"size": "128"}]}}}}}, {"name": "StatefulPartitionedCall/autoencoder/StatefulPartitionedCall/dilated_conv_decoder/dilated_conv_stack/dilated_conv/conv2d_4/Conv2D/SpaceToBatchND/block_shape", "op": "Const", "input": ["^Func/StatefulPartitionedCall/autoencoder/StatefulPartitionedCall/input_control_node/_72"], "attr": {"value": {"tensor": {"dtype": "DT_INT32", "tensorShape": {"dim": [{"size": "2"}]}}}, "dtype": {"type": "DT_INT32"}}}, {"name": "StatefulPartitionedCall/autoencoder/StatefulPartitionedCall/dilated_conv_decoder/dilated_conv_stack/dilated_conv/conv2d_4/Conv2D/SpaceToBatchND/paddings", "op": "Const", "input": ["^Func/StatefulPartitionedCall/autoencoder/StatefulPartitionedCall/input_control_node/_72"], "attr": {"dtype": {"type": "DT_INT32"}, "value": {"tensor": {"dtype": "DT_INT32", "tensorShape": {"dim": [{"size": "2"}, {"size": "2"}]}}}}}, {"name": "Func/StatefulPartitionedCall/autoencoder/StatefulPartitionedCall/input/_89", "op": "Const", "input": ["^Func/StatefulPartitionedCall/autoencoder/StatefulPartitionedCall/input_control_node/_72"], "attr": {"dtype": {"type": "DT_FLOAT"}, "value": {"tensor": {"dtype": "DT_FLOAT", "tensorShape": {"dim": [{"size": "3"}, {"size": "1"}, {"size": "128"}, {"size": "128"}]}}}}}, {"name": "StatefulPartitionedCall/autoencoder/StatefulPartitionedCall/dilated_conv_decoder/dilated_conv_stack/dilated_conv/conv2d_4/Conv2D/BatchToSpaceND/block_shape", "op": "Const", "input": ["^Func/StatefulPartitionedCall/autoencoder/StatefulPartitionedCall/input_control_node/_72"], "attr": {"value": {"tensor": {"dtype": "DT_INT32", "tensorShape": {"dim": [{"size": "2"}]}}}, "dtype": {"type": "DT_INT32"}}}, {"name": "StatefulPartitionedCall/autoencoder/StatefulPartitionedCall/dilated_conv_decoder/dilated_conv_stack/dilated_conv/conv2d_4/Conv2D/BatchToSpaceND/crops", "op": "Const", "input": ["^Func/StatefulPartitionedCall/autoencoder/StatefulPartitionedCall/input_control_node/_72"], "attr": {"dtype": {"type": "DT_INT32"}, "value": {"tensor": {"dtype": "DT_INT32", "tensorShape": {"dim": [{"size": "2"}, {"size": "2"}]}}}}}, {"name": "Func/StatefulPartitionedCall/autoencoder/StatefulPartitionedCall/input/_90", "op": "Const", "input": ["^Func/StatefulPartitionedCall/autoencoder/StatefulPartitionedCall/input_control_node/_72"], "attr": {"dtype": {"type": "DT_FLOAT"}, "value": {"tensor": {"dtype": "DT_FLOAT", "tensorShape": {"dim": [{"size": "128"}]}}}}}, {"name": "StatefulPartitionedCall/autoencoder/StatefulPartitionedCall/dilated_conv_decoder/dilated_conv_stack/normalize_3/Reshape/shape", "op": "Const", "input": ["^Func/StatefulPartitionedCall/autoencoder/StatefulPartitionedCall/input_control_node/_72"], "attr": {"value": {"tensor": {"dtype": "DT_INT32", "tensorShape": {"dim": [{"size": "5"}]}}}, "dtype": {"type": "DT_INT32"}}}, {"name": "StatefulPartitionedCall/autoencoder/StatefulPartitionedCall/dilated_conv_decoder/dilated_conv_stack/normalize_3/moments/mean/reduction_indices", "op": "Const", "input": ["^Func/StatefulPartitionedCall/autoencoder/StatefulPartitionedCall/input_control_node/_72"], "attr": {"value": {"tensor": {"dtype": "DT_INT32", "tensorShape": {"dim": [{"size": "3"}]}}}, "dtype": {"type": "DT_INT32"}}}, {"name": "StatefulPartitionedCall/autoencoder/StatefulPartitionedCall/dilated_conv_decoder/dilated_conv_stack/normalize_3/moments/variance/reduction_indices", "op": "Const", "input": ["^Func/StatefulPartitionedCall/autoencoder/StatefulPartitionedCall/input_control_node/_72"], "attr": {"dtype": {"type": "DT_INT32"}, "value": {"tensor": {"dtype": "DT_INT32", "tensorShape": {"dim": [{"size": "3"}]}}}}}, {"name": "StatefulPartitionedCall/autoencoder/StatefulPartitionedCall/dilated_conv_decoder/dilated_conv_stack/normalize_3/add/y", "op": "Const", "input": ["^Func/StatefulPartitionedCall/autoencoder/StatefulPartitionedCall/input_control_node/_72"], "attr": {"dtype": {"type": "DT_FLOAT"}, "value": {"tensor": {"dtype": "DT_FLOAT", "tensorShape": {}}}}}, {"name": "StatefulPartitionedCall/autoencoder/StatefulPartitionedCall/dilated_conv_decoder/dilated_conv_stack/normalize_3/Reshape_1/shape", "op": "Const", "input": ["^Func/StatefulPartitionedCall/autoencoder/StatefulPartitionedCall/input_control_node/_72"], "attr": {"value": {"tensor": {"dtype": "DT_INT32", "tensorShape": {"dim": [{"size": "4"}]}}}, "dtype": {"type": "DT_INT32"}}}, {"name": "Func/StatefulPartitionedCall/autoencoder/StatefulPartitionedCall/input/_91", "op": "Const", "input": ["^Func/StatefulPartitionedCall/autoencoder/StatefulPartitionedCall/input_control_node/_72"], "attr": {"value": {"tensor": {"dtype": "DT_FLOAT", "tensorShape": {"dim": [{"size": "1"}, {"size": "1"}, {"size": "1"}, {"size": "128"}]}}}, "dtype": {"type": "DT_FLOAT"}}}, {"name": "StatefulPartitionedCall/autoencoder/StatefulPartitionedCall/dilated_conv_decoder/dilated_conv_stack/dilated_conv/conv2d_5/Conv2D/SpaceToBatchND/block_shape", "op": "Const", "input": ["^Func/StatefulPartitionedCall/autoencoder/StatefulPartitionedCall/input_control_node/_72"], "attr": {"dtype": {"type": "DT_INT32"}, "value": {"tensor": {"dtype": "DT_INT32", "tensorShape": {"dim": [{"size": "2"}]}}}}}, {"name": "StatefulPartitionedCall/autoencoder/StatefulPartitionedCall/dilated_conv_decoder/dilated_conv_stack/dilated_conv/conv2d_5/Conv2D/SpaceToBatchND/paddings", "op": "Const", "input": ["^Func/StatefulPartitionedCall/autoencoder/StatefulPartitionedCall/input_control_node/_72"], "attr": {"value": {"tensor": {"dtype": "DT_INT32", "tensorShape": {"dim": [{"size": "2"}, {"size": "2"}]}}}, "dtype": {"type": "DT_INT32"}}}, {"name": "Func/StatefulPartitionedCall/autoencoder/StatefulPartitionedCall/input/_93", "op": "Const", "input": ["^Func/StatefulPartitionedCall/autoencoder/StatefulPartitionedCall/input_control_node/_72"], "attr": {"value": {"tensor": {"dtype": "DT_FLOAT", "tensorShape": {"dim": [{"size": "3"}, {"size": "1"}, {"size": "128"}, {"size": "128"}]}}}, "dtype": {"type": "DT_FLOAT"}}}, {"name": "StatefulPartitionedCall/autoencoder/StatefulPartitionedCall/dilated_conv_decoder/dilated_conv_stack/dilated_conv/conv2d_5/Conv2D/BatchToSpaceND/block_shape", "op": "Const", "input": ["^Func/StatefulPartitionedCall/autoencoder/StatefulPartitionedCall/input_control_node/_72"], "attr": {"dtype": {"type": "DT_INT32"}, "value": {"tensor": {"dtype": "DT_INT32", "tensorShape": {"dim": [{"size": "2"}]}}}}}, {"name": "StatefulPartitionedCall/autoencoder/StatefulPartitionedCall/dilated_conv_decoder/dilated_conv_stack/dilated_conv/conv2d_5/Conv2D/BatchToSpaceND/crops", "op": "Const", "input": ["^Func/StatefulPartitionedCall/autoencoder/StatefulPartitionedCall/input_control_node/_72"], "attr": {"dtype": {"type": "DT_INT32"}, "value": {"tensor": {"dtype": "DT_INT32", "tensorShape": {"dim": [{"size": "2"}, {"size": "2"}]}}}}}, {"name": "Func/StatefulPartitionedCall/autoencoder/StatefulPartitionedCall/input/_94", "op": "Const", "input": ["^Func/StatefulPartitionedCall/autoencoder/StatefulPartitionedCall/input_control_node/_72"], "attr": {"dtype": {"type": "DT_FLOAT"}, "value": {"tensor": {"dtype": "DT_FLOAT", "tensorShape": {"dim": [{"size": "128"}]}}}}}, {"name": "StatefulPartitionedCall/autoencoder/StatefulPartitionedCall/dilated_conv_decoder/dilated_conv_stack/normalize_4/Reshape/shape", "op": "Const", "input": ["^Func/StatefulPartitionedCall/autoencoder/StatefulPartitionedCall/input_control_node/_72"], "attr": {"dtype": {"type": "DT_INT32"}, "value": {"tensor": {"dtype": "DT_INT32", "tensorShape": {"dim": [{"size": "5"}]}}}}}, {"name": "StatefulPartitionedCall/autoencoder/StatefulPartitionedCall/dilated_conv_decoder/dilated_conv_stack/normalize_4/moments/mean/reduction_indices", "op": "Const", "input": ["^Func/StatefulPartitionedCall/autoencoder/StatefulPartitionedCall/input_control_node/_72"], "attr": {"value": {"tensor": {"dtype": "DT_INT32", "tensorShape": {"dim": [{"size": "3"}]}}}, "dtype": {"type": "DT_INT32"}}}, {"name": "StatefulPartitionedCall/autoencoder/StatefulPartitionedCall/dilated_conv_decoder/dilated_conv_stack/normalize_4/moments/variance/reduction_indices", "op": "Const", "input": ["^Func/StatefulPartitionedCall/autoencoder/StatefulPartitionedCall/input_control_node/_72"], "attr": {"value": {"tensor": {"dtype": "DT_INT32", "tensorShape": {"dim": [{"size": "3"}]}}}, "dtype": {"type": "DT_INT32"}}}, {"name": "StatefulPartitionedCall/autoencoder/StatefulPartitionedCall/dilated_conv_decoder/dilated_conv_stack/normalize_4/add/y", "op": "Const", "input": ["^Func/StatefulPartitionedCall/autoencoder/StatefulPartitionedCall/input_control_node/_72"], "attr": {"dtype": {"type": "DT_FLOAT"}, "value": {"tensor": {"dtype": "DT_FLOAT", "tensorShape": {}}}}}, {"name": "StatefulPartitionedCall/autoencoder/StatefulPartitionedCall/dilated_conv_decoder/dilated_conv_stack/normalize_4/Reshape_1/shape", "op": "Const", "input": ["^Func/StatefulPartitionedCall/autoencoder/StatefulPartitionedCall/input_control_node/_72"], "attr": {"value": {"tensor": {"dtype": "DT_INT32", "tensorShape": {"dim": [{"size": "4"}]}}}, "dtype": {"type": "DT_INT32"}}}, {"name": "Func/StatefulPartitionedCall/autoencoder/StatefulPartitionedCall/input/_95", "op": "Const", "input": ["^Func/StatefulPartitionedCall/autoencoder/StatefulPartitionedCall/input_control_node/_72"], "attr": {"value": {"tensor": {"dtype": "DT_FLOAT", "tensorShape": {"dim": [{"size": "1"}, {"size": "1"}, {"size": "1"}, {"size": "128"}]}}}, "dtype": {"type": "DT_FLOAT"}}}, {"name": "StatefulPartitionedCall/autoencoder/StatefulPartitionedCall/dilated_conv_decoder/dilated_conv_stack/dilated_conv/conv2d_6/Conv2D/SpaceToBatchND/block_shape", "op": "Const", "input": ["^Func/StatefulPartitionedCall/autoencoder/StatefulPartitionedCall/input_control_node/_72"], "attr": {"dtype": {"type": "DT_INT32"}, "value": {"tensor": {"dtype": "DT_INT32", "tensorShape": {"dim": [{"size": "2"}]}}}}}, {"name": "StatefulPartitionedCall/autoencoder/StatefulPartitionedCall/dilated_conv_decoder/dilated_conv_stack/dilated_conv/conv2d_6/Conv2D/SpaceToBatchND/paddings", "op": "Const", "input": ["^Func/StatefulPartitionedCall/autoencoder/StatefulPartitionedCall/input_control_node/_72"], "attr": {"value": {"tensor": {"dtype": "DT_INT32", "tensorShape": {"dim": [{"size": "2"}, {"size": "2"}]}}}, "dtype": {"type": "DT_INT32"}}}, {"name": "Func/StatefulPartitionedCall/autoencoder/StatefulPartitionedCall/input/_97", "op": "Const", "input": ["^Func/StatefulPartitionedCall/autoencoder/StatefulPartitionedCall/input_control_node/_72"], "attr": {"value": {"tensor": {"dtype": "DT_FLOAT", "tensorShape": {"dim": [{"size": "3"}, {"size": "1"}, {"size": "128"}, {"size": "128"}]}}}, "dtype": {"type": "DT_FLOAT"}}}, {"name": "StatefulPartitionedCall/autoencoder/StatefulPartitionedCall/dilated_conv_decoder/dilated_conv_stack/dilated_conv/conv2d_6/Conv2D/BatchToSpaceND/block_shape", "op": "Const", "input": ["^Func/StatefulPartitionedCall/autoencoder/StatefulPartitionedCall/input_control_node/_72"], "attr": {"value": {"tensor": {"dtype": "DT_INT32", "tensorShape": {"dim": [{"size": "2"}]}}}, "dtype": {"type": "DT_INT32"}}}, {"name": "StatefulPartitionedCall/autoencoder/StatefulPartitionedCall/dilated_conv_decoder/dilated_conv_stack/dilated_conv/conv2d_6/Conv2D/BatchToSpaceND/crops", "op": "Const", "input": ["^Func/StatefulPartitionedCall/autoencoder/StatefulPartitionedCall/input_control_node/_72"], "attr": {"dtype": {"type": "DT_INT32"}, "value": {"tensor": {"dtype": "DT_INT32", "tensorShape": {"dim": [{"size": "2"}, {"size": "2"}]}}}}}, {"name": "Func/StatefulPartitionedCall/autoencoder/StatefulPartitionedCall/input/_98", "op": "Const", "input": ["^Func/StatefulPartitionedCall/autoencoder/StatefulPartitionedCall/input_control_node/_72"], "attr": {"value": {"tensor": {"dtype": "DT_FLOAT", "tensorShape": {"dim": [{"size": "128"}]}}}, "dtype": {"type": "DT_FLOAT"}}}, {"name": "StatefulPartitionedCall/autoencoder/StatefulPartitionedCall/dilated_conv_decoder/dilated_conv_stack/normalize_5/Reshape/shape", "op": "Const", "input": ["^Func/StatefulPartitionedCall/autoencoder/StatefulPartitionedCall/input_control_node/_72"], "attr": {"dtype": {"type": "DT_INT32"}, "value": {"tensor": {"dtype": "DT_INT32", "tensorShape": {"dim": [{"size": "5"}]}}}}}, {"name": "StatefulPartitionedCall/autoencoder/StatefulPartitionedCall/dilated_conv_decoder/dilated_conv_stack/normalize_5/moments/mean/reduction_indices", "op": "Const", "input": ["^Func/StatefulPartitionedCall/autoencoder/StatefulPartitionedCall/input_control_node/_72"], "attr": {"value": {"tensor": {"dtype": "DT_INT32", "tensorShape": {"dim": [{"size": "3"}]}}}, "dtype": {"type": "DT_INT32"}}}, {"name": "StatefulPartitionedCall/autoencoder/StatefulPartitionedCall/dilated_conv_decoder/dilated_conv_stack/normalize_5/moments/variance/reduction_indices", "op": "Const", "input": ["^Func/StatefulPartitionedCall/autoencoder/StatefulPartitionedCall/input_control_node/_72"], "attr": {"dtype": {"type": "DT_INT32"}, "value": {"tensor": {"dtype": "DT_INT32", "tensorShape": {"dim": [{"size": "3"}]}}}}}, {"name": "StatefulPartitionedCall/autoencoder/StatefulPartitionedCall/dilated_conv_decoder/dilated_conv_stack/normalize_5/add/y", "op": "Const", "input": ["^Func/StatefulPartitionedCall/autoencoder/StatefulPartitionedCall/input_control_node/_72"], "attr": {"dtype": {"type": "DT_FLOAT"}, "value": {"tensor": {"dtype": "DT_FLOAT", "tensorShape": {}}}}}, {"name": "StatefulPartitionedCall/autoencoder/StatefulPartitionedCall/dilated_conv_decoder/dilated_conv_stack/normalize_5/Reshape_1/shape", "op": "Const", "input": ["^Func/StatefulPartitionedCall/autoencoder/StatefulPartitionedCall/input_control_node/_72"], "attr": {"value": {"tensor": {"dtype": "DT_INT32", "tensorShape": {"dim": [{"size": "4"}]}}}, "dtype": {"type": "DT_INT32"}}}, {"name": "Func/StatefulPartitionedCall/autoencoder/StatefulPartitionedCall/input/_99", "op": "Const", "input": ["^Func/StatefulPartitionedCall/autoencoder/StatefulPartitionedCall/input_control_node/_72"], "attr": {"value": {"tensor": {"dtype": "DT_FLOAT", "tensorShape": {"dim": [{"size": "1"}, {"size": "1"}, {"size": "1"}, {"size": "128"}]}}}, "dtype": {"type": "DT_FLOAT"}}}, {"name": "StatefulPartitionedCall/autoencoder/StatefulPartitionedCall/dilated_conv_decoder/dilated_conv_stack/dilated_conv/conv2d_7/Conv2D/SpaceToBatchND/block_shape", "op": "Const", "input": ["^Func/StatefulPartitionedCall/autoencoder/StatefulPartitionedCall/input_control_node/_72"], "attr": {"value": {"tensor": {"dtype": "DT_INT32", "tensorShape": {"dim": [{"size": "2"}]}}}, "dtype": {"type": "DT_INT32"}}}, {"name": "StatefulPartitionedCall/autoencoder/StatefulPartitionedCall/dilated_conv_decoder/dilated_conv_stack/dilated_conv/conv2d_7/Conv2D/SpaceToBatchND/paddings", "op": "Const", "input": ["^Func/StatefulPartitionedCall/autoencoder/StatefulPartitionedCall/input_control_node/_72"], "attr": {"dtype": {"type": "DT_INT32"}, "value": {"tensor": {"dtype": "DT_INT32", "tensorShape": {"dim": [{"size": "2"}, {"size": "2"}]}}}}}, {"name": "Func/StatefulPartitionedCall/autoencoder/StatefulPartitionedCall/input/_101", "op": "Const", "input": ["^Func/StatefulPartitionedCall/autoencoder/StatefulPartitionedCall/input_control_node/_72"], "attr": {"value": {"tensor": {"dtype": "DT_FLOAT", "tensorShape": {"dim": [{"size": "3"}, {"size": "1"}, {"size": "128"}, {"size": "128"}]}}}, "dtype": {"type": "DT_FLOAT"}}}, {"name": "StatefulPartitionedCall/autoencoder/StatefulPartitionedCall/dilated_conv_decoder/dilated_conv_stack/dilated_conv/conv2d_7/Conv2D/BatchToSpaceND/block_shape", "op": "Const", "input": ["^Func/StatefulPartitionedCall/autoencoder/StatefulPartitionedCall/input_control_node/_72"], "attr": {"dtype": {"type": "DT_INT32"}, "value": {"tensor": {"dtype": "DT_INT32", "tensorShape": {"dim": [{"size": "2"}]}}}}}, {"name": "StatefulPartitionedCall/autoencoder/StatefulPartitionedCall/dilated_conv_decoder/dilated_conv_stack/dilated_conv/conv2d_7/Conv2D/BatchToSpaceND/crops", "op": "Const", "input": ["^Func/StatefulPartitionedCall/autoencoder/StatefulPartitionedCall/input_control_node/_72"], "attr": {"dtype": {"type": "DT_INT32"}, "value": {"tensor": {"dtype": "DT_INT32", "tensorShape": {"dim": [{"size": "2"}, {"size": "2"}]}}}}}, {"name": "Func/StatefulPartitionedCall/autoencoder/StatefulPartitionedCall/input/_102", "op": "Const", "input": ["^Func/StatefulPartitionedCall/autoencoder/StatefulPartitionedCall/input_control_node/_72"], "attr": {"value": {"tensor": {"dtype": "DT_FLOAT", "tensorShape": {"dim": [{"size": "128"}]}}}, "dtype": {"type": "DT_FLOAT"}}}, {"name": "StatefulPartitionedCall/autoencoder/StatefulPartitionedCall/dilated_conv_decoder/dilated_conv_stack/normalize_6/Reshape/shape", "op": "Const", "input": ["^Func/StatefulPartitionedCall/autoencoder/StatefulPartitionedCall/input_control_node/_72"], "attr": {"dtype": {"type": "DT_INT32"}, "value": {"tensor": {"dtype": "DT_INT32", "tensorShape": {"dim": [{"size": "5"}]}}}}}, {"name": "StatefulPartitionedCall/autoencoder/StatefulPartitionedCall/dilated_conv_decoder/dilated_conv_stack/normalize_6/moments/mean/reduction_indices", "op": "Const", "input": ["^Func/StatefulPartitionedCall/autoencoder/StatefulPartitionedCall/input_control_node/_72"], "attr": {"dtype": {"type": "DT_INT32"}, "value": {"tensor": {"dtype": "DT_INT32", "tensorShape": {"dim": [{"size": "3"}]}}}}}, {"name": "StatefulPartitionedCall/autoencoder/StatefulPartitionedCall/dilated_conv_decoder/dilated_conv_stack/normalize_6/moments/variance/reduction_indices", "op": "Const", "input": ["^Func/StatefulPartitionedCall/autoencoder/StatefulPartitionedCall/input_control_node/_72"], "attr": {"value": {"tensor": {"dtype": "DT_INT32", "tensorShape": {"dim": [{"size": "3"}]}}}, "dtype": {"type": "DT_INT32"}}}, {"name": "StatefulPartitionedCall/autoencoder/StatefulPartitionedCall/dilated_conv_decoder/dilated_conv_stack/normalize_6/add/y", "op": "Const", "input": ["^Func/StatefulPartitionedCall/autoencoder/StatefulPartitionedCall/input_control_node/_72"], "attr": {"dtype": {"type": "DT_FLOAT"}, "value": {"tensor": {"dtype": "DT_FLOAT", "tensorShape": {}}}}}, {"name": "StatefulPartitionedCall/autoencoder/StatefulPartitionedCall/dilated_conv_decoder/dilated_conv_stack/normalize_6/Reshape_1/shape", "op": "Const", "input": ["^Func/StatefulPartitionedCall/autoencoder/StatefulPartitionedCall/input_control_node/_72"], "attr": {"value": {"tensor": {"dtype": "DT_INT32", "tensorShape": {"dim": [{"size": "4"}]}}}, "dtype": {"type": "DT_INT32"}}}, {"name": "Func/StatefulPartitionedCall/autoencoder/StatefulPartitionedCall/input/_103", "op": "Const", "input": ["^Func/StatefulPartitionedCall/autoencoder/StatefulPartitionedCall/input_control_node/_72"], "attr": {"dtype": {"type": "DT_FLOAT"}, "value": {"tensor": {"dtype": "DT_FLOAT", "tensorShape": {"dim": [{"size": "1"}, {"size": "1"}, {"size": "1"}, {"size": "128"}]}}}}}, {"name": "StatefulPartitionedCall/autoencoder/StatefulPartitionedCall/dilated_conv_decoder/dilated_conv_stack/dilated_conv/conv2d_8/Conv2D/SpaceToBatchND/block_shape", "op": "Const", "input": ["^Func/StatefulPartitionedCall/autoencoder/StatefulPartitionedCall/input_control_node/_72"], "attr": {"value": {"tensor": {"dtype": "DT_INT32", "tensorShape": {"dim": [{"size": "2"}]}}}, "dtype": {"type": "DT_INT32"}}}, {"name": "StatefulPartitionedCall/autoencoder/StatefulPartitionedCall/dilated_conv_decoder/dilated_conv_stack/dilated_conv/conv2d_8/Conv2D/SpaceToBatchND/paddings", "op": "Const", "input": ["^Func/StatefulPartitionedCall/autoencoder/StatefulPartitionedCall/input_control_node/_72"], "attr": {"dtype": {"type": "DT_INT32"}, "value": {"tensor": {"dtype": "DT_INT32", "tensorShape": {"dim": [{"size": "2"}, {"size": "2"}]}}}}}, {"name": "Func/StatefulPartitionedCall/autoencoder/StatefulPartitionedCall/input/_105", "op": "Const", "input": ["^Func/StatefulPartitionedCall/autoencoder/StatefulPartitionedCall/input_control_node/_72"], "attr": {"dtype": {"type": "DT_FLOAT"}, "value": {"tensor": {"dtype": "DT_FLOAT", "tensorShape": {"dim": [{"size": "3"}, {"size": "1"}, {"size": "128"}, {"size": "128"}]}}}}}, {"name": "StatefulPartitionedCall/autoencoder/StatefulPartitionedCall/dilated_conv_decoder/dilated_conv_stack/dilated_conv/conv2d_8/Conv2D/BatchToSpaceND/block_shape", "op": "Const", "input": ["^Func/StatefulPartitionedCall/autoencoder/StatefulPartitionedCall/input_control_node/_72"], "attr": {"dtype": {"type": "DT_INT32"}, "value": {"tensor": {"dtype": "DT_INT32", "tensorShape": {"dim": [{"size": "2"}]}}}}}, {"name": "StatefulPartitionedCall/autoencoder/StatefulPartitionedCall/dilated_conv_decoder/dilated_conv_stack/dilated_conv/conv2d_8/Conv2D/BatchToSpaceND/crops", "op": "Const", "input": ["^Func/StatefulPartitionedCall/autoencoder/StatefulPartitionedCall/input_control_node/_72"], "attr": {"value": {"tensor": {"dtype": "DT_INT32", "tensorShape": {"dim": [{"size": "2"}, {"size": "2"}]}}}, "dtype": {"type": "DT_INT32"}}}, {"name": "Func/StatefulPartitionedCall/autoencoder/StatefulPartitionedCall/input/_106", "op": "Const", "input": ["^Func/StatefulPartitionedCall/autoencoder/StatefulPartitionedCall/input_control_node/_72"], "attr": {"dtype": {"type": "DT_FLOAT"}, "value": {"tensor": {"dtype": "DT_FLOAT", "tensorShape": {"dim": [{"size": "128"}]}}}}}, {"name": "StatefulPartitionedCall/autoencoder/StatefulPartitionedCall/dilated_conv_decoder/dilated_conv_stack/normalize_7/Reshape/shape", "op": "Const", "input": ["^Func/StatefulPartitionedCall/autoencoder/StatefulPartitionedCall/input_control_node/_72"], "attr": {"dtype": {"type": "DT_INT32"}, "value": {"tensor": {"dtype": "DT_INT32", "tensorShape": {"dim": [{"size": "5"}]}}}}}, {"name": "StatefulPartitionedCall/autoencoder/StatefulPartitionedCall/dilated_conv_decoder/dilated_conv_stack/normalize_7/moments/mean/reduction_indices", "op": "Const", "input": ["^Func/StatefulPartitionedCall/autoencoder/StatefulPartitionedCall/input_control_node/_72"], "attr": {"value": {"tensor": {"dtype": "DT_INT32", "tensorShape": {"dim": [{"size": "3"}]}}}, "dtype": {"type": "DT_INT32"}}}, {"name": "StatefulPartitionedCall/autoencoder/StatefulPartitionedCall/dilated_conv_decoder/dilated_conv_stack/normalize_7/moments/variance/reduction_indices", "op": "Const", "input": ["^Func/StatefulPartitionedCall/autoencoder/StatefulPartitionedCall/input_control_node/_72"], "attr": {"value": {"tensor": {"dtype": "DT_INT32", "tensorShape": {"dim": [{"size": "3"}]}}}, "dtype": {"type": "DT_INT32"}}}, {"name": "StatefulPartitionedCall/autoencoder/StatefulPartitionedCall/dilated_conv_decoder/dilated_conv_stack/normalize_7/add/y", "op": "Const", "input": ["^Func/StatefulPartitionedCall/autoencoder/StatefulPartitionedCall/input_control_node/_72"], "attr": {"dtype": {"type": "DT_FLOAT"}, "value": {"tensor": {"dtype": "DT_FLOAT", "tensorShape": {}}}}}, {"name": "StatefulPartitionedCall/autoencoder/StatefulPartitionedCall/dilated_conv_decoder/dilated_conv_stack/normalize_7/Reshape_1/shape", "op": "Const", "input": ["^Func/StatefulPartitionedCall/autoencoder/StatefulPartitionedCall/input_control_node/_72"], "attr": {"value": {"tensor": {"dtype": "DT_INT32", "tensorShape": {"dim": [{"size": "4"}]}}}, "dtype": {"type": "DT_INT32"}}}, {"name": "Func/StatefulPartitionedCall/autoencoder/StatefulPartitionedCall/input/_107", "op": "Const", "input": ["^Func/StatefulPartitionedCall/autoencoder/StatefulPartitionedCall/input_control_node/_72"], "attr": {"dtype": {"type": "DT_FLOAT"}, "value": {"tensor": {"dtype": "DT_FLOAT", "tensorShape": {"dim": [{"size": "1"}, {"size": "1"}, {"size": "1"}, {"size": "128"}]}}}}}, {"name": "Func/StatefulPartitionedCall/autoencoder/StatefulPartitionedCall/input/_109", "op": "Const", "input": ["^Func/StatefulPartitionedCall/autoencoder/StatefulPartitionedCall/input_control_node/_72"], "attr": {"dtype": {"type": "DT_FLOAT"}, "value": {"tensor": {"dtype": "DT_FLOAT", "tensorShape": {"dim": [{"size": "3"}, {"size": "1"}, {"size": "128"}, {"size": "128"}]}}}}}, {"name": "Func/StatefulPartitionedCall/autoencoder/StatefulPartitionedCall/input/_110", "op": "Const", "input": ["^Func/StatefulPartitionedCall/autoencoder/StatefulPartitionedCall/input_control_node/_72"], "attr": {"dtype": {"type": "DT_FLOAT"}, "value": {"tensor": {"dtype": "DT_FLOAT", "tensorShape": {"dim": [{"size": "128"}]}}}}}, {"name": "StatefulPartitionedCall/autoencoder/StatefulPartitionedCall/dilated_conv_decoder/dilated_conv_stack/normalize_8/Reshape/shape", "op": "Const", "input": ["^Func/StatefulPartitionedCall/autoencoder/StatefulPartitionedCall/input_control_node/_72"], "attr": {"value": {"tensor": {"dtype": "DT_INT32", "tensorShape": {"dim": [{"size": "5"}]}}}, "dtype": {"type": "DT_INT32"}}}, {"name": "StatefulPartitionedCall/autoencoder/StatefulPartitionedCall/dilated_conv_decoder/dilated_conv_stack/normalize_8/moments/mean/reduction_indices", "op": "Const", "input": ["^Func/StatefulPartitionedCall/autoencoder/StatefulPartitionedCall/input_control_node/_72"], "attr": {"value": {"tensor": {"dtype": "DT_INT32", "tensorShape": {"dim": [{"size": "3"}]}}}, "dtype": {"type": "DT_INT32"}}}, {"name": "StatefulPartitionedCall/autoencoder/StatefulPartitionedCall/dilated_conv_decoder/dilated_conv_stack/normalize_8/moments/variance/reduction_indices", "op": "Const", "input": ["^Func/StatefulPartitionedCall/autoencoder/StatefulPartitionedCall/input_control_node/_72"], "attr": {"value": {"tensor": {"dtype": "DT_INT32", "tensorShape": {"dim": [{"size": "3"}]}}}, "dtype": {"type": "DT_INT32"}}}, {"name": "StatefulPartitionedCall/autoencoder/StatefulPartitionedCall/dilated_conv_decoder/dilated_conv_stack/normalize_8/add/y", "op": "Const", "input": ["^Func/StatefulPartitionedCall/autoencoder/StatefulPartitionedCall/input_control_node/_72"], "attr": {"value": {"tensor": {"dtype": "DT_FLOAT", "tensorShape": {}}}, "dtype": {"type": "DT_FLOAT"}}}, {"name": "StatefulPartitionedCall/autoencoder/StatefulPartitionedCall/dilated_conv_decoder/dilated_conv_stack/normalize_8/Reshape_1/shape", "op": "Const", "input": ["^Func/StatefulPartitionedCall/autoencoder/StatefulPartitionedCall/input_control_node/_72"], "attr": {"dtype": {"type": "DT_INT32"}, "value": {"tensor": {"dtype": "DT_INT32", "tensorShape": {"dim": [{"size": "4"}]}}}}}, {"name": "Func/StatefulPartitionedCall/autoencoder/StatefulPartitionedCall/input/_111", "op": "Const", "input": ["^Func/StatefulPartitionedCall/autoencoder/StatefulPartitionedCall/input_control_node/_72"], "attr": {"value": {"tensor": {"dtype": "DT_FLOAT", "tensorShape": {"dim": [{"size": "1"}, {"size": "1"}, {"size": "1"}, {"size": "128"}]}}}, "dtype": {"type": "DT_FLOAT"}}}, {"name": "StatefulPartitionedCall/autoencoder/StatefulPartitionedCall/dilated_conv_decoder/dilated_conv_stack/dilated_conv/conv2d_10/Conv2D/SpaceToBatchND/block_shape", "op": "Const", "input": ["^Func/StatefulPartitionedCall/autoencoder/StatefulPartitionedCall/input_control_node/_72"], "attr": {"dtype": {"type": "DT_INT32"}, "value": {"tensor": {"dtype": "DT_INT32", "tensorShape": {"dim": [{"size": "2"}]}}}}}, {"name": "StatefulPartitionedCall/autoencoder/StatefulPartitionedCall/dilated_conv_decoder/dilated_conv_stack/dilated_conv/conv2d_10/Conv2D/SpaceToBatchND/paddings", "op": "Const", "input": ["^Func/StatefulPartitionedCall/autoencoder/StatefulPartitionedCall/input_control_node/_72"], "attr": {"value": {"tensor": {"dtype": "DT_INT32", "tensorShape": {"dim": [{"size": "2"}, {"size": "2"}]}}}, "dtype": {"type": "DT_INT32"}}}, {"name": "Func/StatefulPartitionedCall/autoencoder/StatefulPartitionedCall/input/_113", "op": "Const", "input": ["^Func/StatefulPartitionedCall/autoencoder/StatefulPartitionedCall/input_control_node/_72"], "attr": {"dtype": {"type": "DT_FLOAT"}, "value": {"tensor": {"dtype": "DT_FLOAT", "tensorShape": {"dim": [{"size": "3"}, {"size": "1"}, {"size": "128"}, {"size": "128"}]}}}}}, {"name": "StatefulPartitionedCall/autoencoder/StatefulPartitionedCall/dilated_conv_decoder/dilated_conv_stack/dilated_conv/conv2d_10/Conv2D/BatchToSpaceND/block_shape", "op": "Const", "input": ["^Func/StatefulPartitionedCall/autoencoder/StatefulPartitionedCall/input_control_node/_72"], "attr": {"dtype": {"type": "DT_INT32"}, "value": {"tensor": {"dtype": "DT_INT32", "tensorShape": {"dim": [{"size": "2"}]}}}}}, {"name": "StatefulPartitionedCall/autoencoder/StatefulPartitionedCall/dilated_conv_decoder/dilated_conv_stack/dilated_conv/conv2d_10/Conv2D/BatchToSpaceND/crops", "op": "Const", "input": ["^Func/StatefulPartitionedCall/autoencoder/StatefulPartitionedCall/input_control_node/_72"], "attr": {"dtype": {"type": "DT_INT32"}, "value": {"tensor": {"dtype": "DT_INT32", "tensorShape": {"dim": [{"size": "2"}, {"size": "2"}]}}}}}, {"name": "Func/StatefulPartitionedCall/autoencoder/StatefulPartitionedCall/input/_114", "op": "Const", "input": ["^Func/StatefulPartitionedCall/autoencoder/StatefulPartitionedCall/input_control_node/_72"], "attr": {"dtype": {"type": "DT_FLOAT"}, "value": {"tensor": {"dtype": "DT_FLOAT", "tensorShape": {"dim": [{"size": "128"}]}}}}}, {"name": "StatefulPartitionedCall/autoencoder/StatefulPartitionedCall/dilated_conv_decoder/dilated_conv_stack/normalize_9/Reshape/shape", "op": "Const", "input": ["^Func/StatefulPartitionedCall/autoencoder/StatefulPartitionedCall/input_control_node/_72"], "attr": {"dtype": {"type": "DT_INT32"}, "value": {"tensor": {"dtype": "DT_INT32", "tensorShape": {"dim": [{"size": "5"}]}}}}}, {"name": "StatefulPartitionedCall/autoencoder/StatefulPartitionedCall/dilated_conv_decoder/dilated_conv_stack/normalize_9/moments/mean/reduction_indices", "op": "Const", "input": ["^Func/StatefulPartitionedCall/autoencoder/StatefulPartitionedCall/input_control_node/_72"], "attr": {"dtype": {"type": "DT_INT32"}, "value": {"tensor": {"dtype": "DT_INT32", "tensorShape": {"dim": [{"size": "3"}]}}}}}, {"name": "StatefulPartitionedCall/autoencoder/StatefulPartitionedCall/dilated_conv_decoder/dilated_conv_stack/normalize_9/moments/variance/reduction_indices", "op": "Const", "input": ["^Func/StatefulPartitionedCall/autoencoder/StatefulPartitionedCall/input_control_node/_72"], "attr": {"value": {"tensor": {"dtype": "DT_INT32", "tensorShape": {"dim": [{"size": "3"}]}}}, "dtype": {"type": "DT_INT32"}}}, {"name": "StatefulPartitionedCall/autoencoder/StatefulPartitionedCall/dilated_conv_decoder/dilated_conv_stack/normalize_9/add/y", "op": "Const", "input": ["^Func/StatefulPartitionedCall/autoencoder/StatefulPartitionedCall/input_control_node/_72"], "attr": {"dtype": {"type": "DT_FLOAT"}, "value": {"tensor": {"dtype": "DT_FLOAT", "tensorShape": {}}}}}, {"name": "StatefulPartitionedCall/autoencoder/StatefulPartitionedCall/dilated_conv_decoder/dilated_conv_stack/normalize_9/Reshape_1/shape", "op": "Const", "input": ["^Func/StatefulPartitionedCall/autoencoder/StatefulPartitionedCall/input_control_node/_72"], "attr": {"value": {"tensor": {"dtype": "DT_INT32", "tensorShape": {"dim": [{"size": "4"}]}}}, "dtype": {"type": "DT_INT32"}}}, {"name": "Func/StatefulPartitionedCall/autoencoder/StatefulPartitionedCall/input/_115", "op": "Const", "input": ["^Func/StatefulPartitionedCall/autoencoder/StatefulPartitionedCall/input_control_node/_72"], "attr": {"dtype": {"type": "DT_FLOAT"}, "value": {"tensor": {"dtype": "DT_FLOAT", "tensorShape": {"dim": [{"size": "1"}, {"size": "1"}, {"size": "1"}, {"size": "128"}]}}}}}, {"name": "StatefulPartitionedCall/autoencoder/StatefulPartitionedCall/dilated_conv_decoder/dilated_conv_stack/dilated_conv/conv2d_11/Conv2D/SpaceToBatchND/block_shape", "op": "Const", "input": ["^Func/StatefulPartitionedCall/autoencoder/StatefulPartitionedCall/input_control_node/_72"], "attr": {"dtype": {"type": "DT_INT32"}, "value": {"tensor": {"dtype": "DT_INT32", "tensorShape": {"dim": [{"size": "2"}]}}}}}, {"name": "StatefulPartitionedCall/autoencoder/StatefulPartitionedCall/dilated_conv_decoder/dilated_conv_stack/dilated_conv/conv2d_11/Conv2D/SpaceToBatchND/paddings", "op": "Const", "input": ["^Func/StatefulPartitionedCall/autoencoder/StatefulPartitionedCall/input_control_node/_72"], "attr": {"value": {"tensor": {"dtype": "DT_INT32", "tensorShape": {"dim": [{"size": "2"}, {"size": "2"}]}}}, "dtype": {"type": "DT_INT32"}}}, {"name": "Func/StatefulPartitionedCall/autoencoder/StatefulPartitionedCall/input/_117", "op": "Const", "input": ["^Func/StatefulPartitionedCall/autoencoder/StatefulPartitionedCall/input_control_node/_72"], "attr": {"value": {"tensor": {"dtype": "DT_FLOAT", "tensorShape": {"dim": [{"size": "3"}, {"size": "1"}, {"size": "128"}, {"size": "128"}]}}}, "dtype": {"type": "DT_FLOAT"}}}, {"name": "StatefulPartitionedCall/autoencoder/StatefulPartitionedCall/dilated_conv_decoder/dilated_conv_stack/dilated_conv/conv2d_11/Conv2D/BatchToSpaceND/block_shape", "op": "Const", "input": ["^Func/StatefulPartitionedCall/autoencoder/StatefulPartitionedCall/input_control_node/_72"], "attr": {"value": {"tensor": {"dtype": "DT_INT32", "tensorShape": {"dim": [{"size": "2"}]}}}, "dtype": {"type": "DT_INT32"}}}, {"name": "StatefulPartitionedCall/autoencoder/StatefulPartitionedCall/dilated_conv_decoder/dilated_conv_stack/dilated_conv/conv2d_11/Conv2D/BatchToSpaceND/crops", "op": "Const", "input": ["^Func/StatefulPartitionedCall/autoencoder/StatefulPartitionedCall/input_control_node/_72"], "attr": {"value": {"tensor": {"dtype": "DT_INT32", "tensorShape": {"dim": [{"size": "2"}, {"size": "2"}]}}}, "dtype": {"type": "DT_INT32"}}}, {"name": "Func/StatefulPartitionedCall/autoencoder/StatefulPartitionedCall/input/_118", "op": "Const", "input": ["^Func/StatefulPartitionedCall/autoencoder/StatefulPartitionedCall/input_control_node/_72"], "attr": {"value": {"tensor": {"dtype": "DT_FLOAT", "tensorShape": {"dim": [{"size": "128"}]}}}, "dtype": {"type": "DT_FLOAT"}}}, {"name": "StatefulPartitionedCall/autoencoder/StatefulPartitionedCall/dilated_conv_decoder/dilated_conv_stack/normalize_10/Reshape/shape", "op": "Const", "input": ["^Func/StatefulPartitionedCall/autoencoder/StatefulPartitionedCall/input_control_node/_72"], "attr": {"dtype": {"type": "DT_INT32"}, "value": {"tensor": {"dtype": "DT_INT32", "tensorShape": {"dim": [{"size": "5"}]}}}}}, {"name": "StatefulPartitionedCall/autoencoder/StatefulPartitionedCall/dilated_conv_decoder/dilated_conv_stack/normalize_10/moments/mean/reduction_indices", "op": "Const", "input": ["^Func/StatefulPartitionedCall/autoencoder/StatefulPartitionedCall/input_control_node/_72"], "attr": {"dtype": {"type": "DT_INT32"}, "value": {"tensor": {"dtype": "DT_INT32", "tensorShape": {"dim": [{"size": "3"}]}}}}}, {"name": "StatefulPartitionedCall/autoencoder/StatefulPartitionedCall/dilated_conv_decoder/dilated_conv_stack/normalize_10/moments/variance/reduction_indices", "op": "Const", "input": ["^Func/StatefulPartitionedCall/autoencoder/StatefulPartitionedCall/input_control_node/_72"], "attr": {"dtype": {"type": "DT_INT32"}, "value": {"tensor": {"dtype": "DT_INT32", "tensorShape": {"dim": [{"size": "3"}]}}}}}, {"name": "StatefulPartitionedCall/autoencoder/StatefulPartitionedCall/dilated_conv_decoder/dilated_conv_stack/normalize_10/add/y", "op": "Const", "input": ["^Func/StatefulPartitionedCall/autoencoder/StatefulPartitionedCall/input_control_node/_72"], "attr": {"dtype": {"type": "DT_FLOAT"}, "value": {"tensor": {"dtype": "DT_FLOAT", "tensorShape": {}}}}}, {"name": "StatefulPartitionedCall/autoencoder/StatefulPartitionedCall/dilated_conv_decoder/dilated_conv_stack/normalize_10/Reshape_1/shape", "op": "Const", "input": ["^Func/StatefulPartitionedCall/autoencoder/StatefulPartitionedCall/input_control_node/_72"], "attr": {"dtype": {"type": "DT_INT32"}, "value": {"tensor": {"dtype": "DT_INT32", "tensorShape": {"dim": [{"size": "4"}]}}}}}, {"name": "Func/StatefulPartitionedCall/autoencoder/StatefulPartitionedCall/input/_119", "op": "Const", "input": ["^Func/StatefulPartitionedCall/autoencoder/StatefulPartitionedCall/input_control_node/_72"], "attr": {"value": {"tensor": {"dtype": "DT_FLOAT", "tensorShape": {"dim": [{"size": "1"}, {"size": "1"}, {"size": "1"}, {"size": "128"}]}}}, "dtype": {"type": "DT_FLOAT"}}}, {"name": "StatefulPartitionedCall/autoencoder/StatefulPartitionedCall/dilated_conv_decoder/dilated_conv_stack/dilated_conv/conv2d_12/Conv2D/SpaceToBatchND/block_shape", "op": "Const", "input": ["^Func/StatefulPartitionedCall/autoencoder/StatefulPartitionedCall/input_control_node/_72"], "attr": {"dtype": {"type": "DT_INT32"}, "value": {"tensor": {"dtype": "DT_INT32", "tensorShape": {"dim": [{"size": "2"}]}}}}}, {"name": "StatefulPartitionedCall/autoencoder/StatefulPartitionedCall/dilated_conv_decoder/dilated_conv_stack/dilated_conv/conv2d_12/Conv2D/SpaceToBatchND/paddings", "op": "Const", "input": ["^Func/StatefulPartitionedCall/autoencoder/StatefulPartitionedCall/input_control_node/_72"], "attr": {"value": {"tensor": {"dtype": "DT_INT32", "tensorShape": {"dim": [{"size": "2"}, {"size": "2"}]}}}, "dtype": {"type": "DT_INT32"}}}, {"name": "Func/StatefulPartitionedCall/autoencoder/StatefulPartitionedCall/input/_121", "op": "Const", "input": ["^Func/StatefulPartitionedCall/autoencoder/StatefulPartitionedCall/input_control_node/_72"], "attr": {"value": {"tensor": {"dtype": "DT_FLOAT", "tensorShape": {"dim": [{"size": "3"}, {"size": "1"}, {"size": "128"}, {"size": "128"}]}}}, "dtype": {"type": "DT_FLOAT"}}}, {"name": "StatefulPartitionedCall/autoencoder/StatefulPartitionedCall/dilated_conv_decoder/dilated_conv_stack/dilated_conv/conv2d_12/Conv2D/BatchToSpaceND/block_shape", "op": "Const", "input": ["^Func/StatefulPartitionedCall/autoencoder/StatefulPartitionedCall/input_control_node/_72"], "attr": {"dtype": {"type": "DT_INT32"}, "value": {"tensor": {"dtype": "DT_INT32", "tensorShape": {"dim": [{"size": "2"}]}}}}}, {"name": "StatefulPartitionedCall/autoencoder/StatefulPartitionedCall/dilated_conv_decoder/dilated_conv_stack/dilated_conv/conv2d_12/Conv2D/BatchToSpaceND/crops", "op": "Const", "input": ["^Func/StatefulPartitionedCall/autoencoder/StatefulPartitionedCall/input_control_node/_72"], "attr": {"dtype": {"type": "DT_INT32"}, "value": {"tensor": {"dtype": "DT_INT32", "tensorShape": {"dim": [{"size": "2"}, {"size": "2"}]}}}}}, {"name": "Func/StatefulPartitionedCall/autoencoder/StatefulPartitionedCall/input/_122", "op": "Const", "input": ["^Func/StatefulPartitionedCall/autoencoder/StatefulPartitionedCall/input_control_node/_72"], "attr": {"dtype": {"type": "DT_FLOAT"}, "value": {"tensor": {"dtype": "DT_FLOAT", "tensorShape": {"dim": [{"size": "128"}]}}}}}, {"name": "StatefulPartitionedCall/autoencoder/StatefulPartitionedCall/dilated_conv_decoder/dilated_conv_stack/normalize_11/Reshape/shape", "op": "Const", "input": ["^Func/StatefulPartitionedCall/autoencoder/StatefulPartitionedCall/input_control_node/_72"], "attr": {"value": {"tensor": {"dtype": "DT_INT32", "tensorShape": {"dim": [{"size": "5"}]}}}, "dtype": {"type": "DT_INT32"}}}, {"name": "StatefulPartitionedCall/autoencoder/StatefulPartitionedCall/dilated_conv_decoder/dilated_conv_stack/normalize_11/moments/mean/reduction_indices", "op": "Const", "input": ["^Func/StatefulPartitionedCall/autoencoder/StatefulPartitionedCall/input_control_node/_72"], "attr": {"value": {"tensor": {"dtype": "DT_INT32", "tensorShape": {"dim": [{"size": "3"}]}}}, "dtype": {"type": "DT_INT32"}}}, {"name": "StatefulPartitionedCall/autoencoder/StatefulPartitionedCall/dilated_conv_decoder/dilated_conv_stack/normalize_11/moments/variance/reduction_indices", "op": "Const", "input": ["^Func/StatefulPartitionedCall/autoencoder/StatefulPartitionedCall/input_control_node/_72"], "attr": {"value": {"tensor": {"dtype": "DT_INT32", "tensorShape": {"dim": [{"size": "3"}]}}}, "dtype": {"type": "DT_INT32"}}}, {"name": "StatefulPartitionedCall/autoencoder/StatefulPartitionedCall/dilated_conv_decoder/dilated_conv_stack/normalize_11/add/y", "op": "Const", "input": ["^Func/StatefulPartitionedCall/autoencoder/StatefulPartitionedCall/input_control_node/_72"], "attr": {"value": {"tensor": {"dtype": "DT_FLOAT", "tensorShape": {}}}, "dtype": {"type": "DT_FLOAT"}}}, {"name": "StatefulPartitionedCall/autoencoder/StatefulPartitionedCall/dilated_conv_decoder/dilated_conv_stack/normalize_11/Reshape_1/shape", "op": "Const", "input": ["^Func/StatefulPartitionedCall/autoencoder/StatefulPartitionedCall/input_control_node/_72"], "attr": {"dtype": {"type": "DT_INT32"}, "value": {"tensor": {"dtype": "DT_INT32", "tensorShape": {"dim": [{"size": "4"}]}}}}}, {"name": "Func/StatefulPartitionedCall/autoencoder/StatefulPartitionedCall/input/_123", "op": "Const", "input": ["^Func/StatefulPartitionedCall/autoencoder/StatefulPartitionedCall/input_control_node/_72"], "attr": {"dtype": {"type": "DT_FLOAT"}, "value": {"tensor": {"dtype": "DT_FLOAT", "tensorShape": {"dim": [{"size": "1"}, {"size": "1"}, {"size": "1"}, {"size": "128"}]}}}}}, {"name": "StatefulPartitionedCall/autoencoder/StatefulPartitionedCall/dilated_conv_decoder/dilated_conv_stack/dilated_conv/conv2d_13/Conv2D/SpaceToBatchND/block_shape", "op": "Const", "input": ["^Func/StatefulPartitionedCall/autoencoder/StatefulPartitionedCall/input_control_node/_72"], "attr": {"value": {"tensor": {"dtype": "DT_INT32", "tensorShape": {"dim": [{"size": "2"}]}}}, "dtype": {"type": "DT_INT32"}}}, {"name": "StatefulPartitionedCall/autoencoder/StatefulPartitionedCall/dilated_conv_decoder/dilated_conv_stack/dilated_conv/conv2d_13/Conv2D/SpaceToBatchND/paddings", "op": "Const", "input": ["^Func/StatefulPartitionedCall/autoencoder/StatefulPartitionedCall/input_control_node/_72"], "attr": {"dtype": {"type": "DT_INT32"}, "value": {"tensor": {"dtype": "DT_INT32", "tensorShape": {"dim": [{"size": "2"}, {"size": "2"}]}}}}}, {"name": "Func/StatefulPartitionedCall/autoencoder/StatefulPartitionedCall/input/_125", "op": "Const", "input": ["^Func/StatefulPartitionedCall/autoencoder/StatefulPartitionedCall/input_control_node/_72"], "attr": {"value": {"tensor": {"dtype": "DT_FLOAT", "tensorShape": {"dim": [{"size": "3"}, {"size": "1"}, {"size": "128"}, {"size": "128"}]}}}, "dtype": {"type": "DT_FLOAT"}}}, {"name": "StatefulPartitionedCall/autoencoder/StatefulPartitionedCall/dilated_conv_decoder/dilated_conv_stack/dilated_conv/conv2d_13/Conv2D/BatchToSpaceND/block_shape", "op": "Const", "input": ["^Func/StatefulPartitionedCall/autoencoder/StatefulPartitionedCall/input_control_node/_72"], "attr": {"value": {"tensor": {"dtype": "DT_INT32", "tensorShape": {"dim": [{"size": "2"}]}}}, "dtype": {"type": "DT_INT32"}}}, {"name": "StatefulPartitionedCall/autoencoder/StatefulPartitionedCall/dilated_conv_decoder/dilated_conv_stack/dilated_conv/conv2d_13/Conv2D/BatchToSpaceND/crops", "op": "Const", "input": ["^Func/StatefulPartitionedCall/autoencoder/StatefulPartitionedCall/input_control_node/_72"], "attr": {"value": {"tensor": {"dtype": "DT_INT32", "tensorShape": {"dim": [{"size": "2"}, {"size": "2"}]}}}, "dtype": {"type": "DT_INT32"}}}, {"name": "Func/StatefulPartitionedCall/autoencoder/StatefulPartitionedCall/input/_126", "op": "Const", "input": ["^Func/StatefulPartitionedCall/autoencoder/StatefulPartitionedCall/input_control_node/_72"], "attr": {"value": {"tensor": {"dtype": "DT_FLOAT", "tensorShape": {"dim": [{"size": "128"}]}}}, "dtype": {"type": "DT_FLOAT"}}}, {"name": "StatefulPartitionedCall/autoencoder/StatefulPartitionedCall/dilated_conv_decoder/dilated_conv_stack/normalize_12/Reshape/shape", "op": "Const", "input": ["^Func/StatefulPartitionedCall/autoencoder/StatefulPartitionedCall/input_control_node/_72"], "attr": {"dtype": {"type": "DT_INT32"}, "value": {"tensor": {"dtype": "DT_INT32", "tensorShape": {"dim": [{"size": "5"}]}}}}}, {"name": "StatefulPartitionedCall/autoencoder/StatefulPartitionedCall/dilated_conv_decoder/dilated_conv_stack/normalize_12/moments/mean/reduction_indices", "op": "Const", "input": ["^Func/StatefulPartitionedCall/autoencoder/StatefulPartitionedCall/input_control_node/_72"], "attr": {"dtype": {"type": "DT_INT32"}, "value": {"tensor": {"dtype": "DT_INT32", "tensorShape": {"dim": [{"size": "3"}]}}}}}, {"name": "StatefulPartitionedCall/autoencoder/StatefulPartitionedCall/dilated_conv_decoder/dilated_conv_stack/normalize_12/moments/variance/reduction_indices", "op": "Const", "input": ["^Func/StatefulPartitionedCall/autoencoder/StatefulPartitionedCall/input_control_node/_72"], "attr": {"value": {"tensor": {"dtype": "DT_INT32", "tensorShape": {"dim": [{"size": "3"}]}}}, "dtype": {"type": "DT_INT32"}}}, {"name": "StatefulPartitionedCall/autoencoder/StatefulPartitionedCall/dilated_conv_decoder/dilated_conv_stack/normalize_12/add/y", "op": "Const", "input": ["^Func/StatefulPartitionedCall/autoencoder/StatefulPartitionedCall/input_control_node/_72"], "attr": {"dtype": {"type": "DT_FLOAT"}, "value": {"tensor": {"dtype": "DT_FLOAT", "tensorShape": {}}}}}, {"name": "StatefulPartitionedCall/autoencoder/StatefulPartitionedCall/dilated_conv_decoder/dilated_conv_stack/normalize_12/Reshape_1/shape", "op": "Const", "input": ["^Func/StatefulPartitionedCall/autoencoder/StatefulPartitionedCall/input_control_node/_72"], "attr": {"value": {"tensor": {"dtype": "DT_INT32", "tensorShape": {"dim": [{"size": "4"}]}}}, "dtype": {"type": "DT_INT32"}}}, {"name": "Func/StatefulPartitionedCall/autoencoder/StatefulPartitionedCall/input/_127", "op": "Const", "input": ["^Func/StatefulPartitionedCall/autoencoder/StatefulPartitionedCall/input_control_node/_72"], "attr": {"dtype": {"type": "DT_FLOAT"}, "value": {"tensor": {"dtype": "DT_FLOAT", "tensorShape": {"dim": [{"size": "1"}, {"size": "1"}, {"size": "1"}, {"size": "128"}]}}}}}, {"name": "StatefulPartitionedCall/autoencoder/StatefulPartitionedCall/dilated_conv_decoder/dilated_conv_stack/dilated_conv/conv2d_14/Conv2D/SpaceToBatchND/block_shape", "op": "Const", "input": ["^Func/StatefulPartitionedCall/autoencoder/StatefulPartitionedCall/input_control_node/_72"], "attr": {"dtype": {"type": "DT_INT32"}, "value": {"tensor": {"dtype": "DT_INT32", "tensorShape": {"dim": [{"size": "2"}]}}}}}, {"name": "StatefulPartitionedCall/autoencoder/StatefulPartitionedCall/dilated_conv_decoder/dilated_conv_stack/dilated_conv/conv2d_14/Conv2D/SpaceToBatchND/paddings", "op": "Const", "input": ["^Func/StatefulPartitionedCall/autoencoder/StatefulPartitionedCall/input_control_node/_72"], "attr": {"dtype": {"type": "DT_INT32"}, "value": {"tensor": {"dtype": "DT_INT32", "tensorShape": {"dim": [{"size": "2"}, {"size": "2"}]}}}}}, {"name": "Func/StatefulPartitionedCall/autoencoder/StatefulPartitionedCall/input/_129", "op": "Const", "input": ["^Func/StatefulPartitionedCall/autoencoder/StatefulPartitionedCall/input_control_node/_72"], "attr": {"value": {"tensor": {"dtype": "DT_FLOAT", "tensorShape": {"dim": [{"size": "3"}, {"size": "1"}, {"size": "128"}, {"size": "128"}]}}}, "dtype": {"type": "DT_FLOAT"}}}, {"name": "StatefulPartitionedCall/autoencoder/StatefulPartitionedCall/dilated_conv_decoder/dilated_conv_stack/dilated_conv/conv2d_14/Conv2D/BatchToSpaceND/block_shape", "op": "Const", "input": ["^Func/StatefulPartitionedCall/autoencoder/StatefulPartitionedCall/input_control_node/_72"], "attr": {"value": {"tensor": {"dtype": "DT_INT32", "tensorShape": {"dim": [{"size": "2"}]}}}, "dtype": {"type": "DT_INT32"}}}, {"name": "StatefulPartitionedCall/autoencoder/StatefulPartitionedCall/dilated_conv_decoder/dilated_conv_stack/dilated_conv/conv2d_14/Conv2D/BatchToSpaceND/crops", "op": "Const", "input": ["^Func/StatefulPartitionedCall/autoencoder/StatefulPartitionedCall/input_control_node/_72"], "attr": {"dtype": {"type": "DT_INT32"}, "value": {"tensor": {"dtype": "DT_INT32", "tensorShape": {"dim": [{"size": "2"}, {"size": "2"}]}}}}}, {"name": "Func/StatefulPartitionedCall/autoencoder/StatefulPartitionedCall/input/_130", "op": "Const", "input": ["^Func/StatefulPartitionedCall/autoencoder/StatefulPartitionedCall/input_control_node/_72"], "attr": {"dtype": {"type": "DT_FLOAT"}, "value": {"tensor": {"dtype": "DT_FLOAT", "tensorShape": {"dim": [{"size": "128"}]}}}}}, {"name": "StatefulPartitionedCall/autoencoder/StatefulPartitionedCall/dilated_conv_decoder/dilated_conv_stack/normalize_13/Reshape/shape", "op": "Const", "input": ["^Func/StatefulPartitionedCall/autoencoder/StatefulPartitionedCall/input_control_node/_72"], "attr": {"dtype": {"type": "DT_INT32"}, "value": {"tensor": {"dtype": "DT_INT32", "tensorShape": {"dim": [{"size": "5"}]}}}}}, {"name": "StatefulPartitionedCall/autoencoder/StatefulPartitionedCall/dilated_conv_decoder/dilated_conv_stack/normalize_13/moments/mean/reduction_indices", "op": "Const", "input": ["^Func/StatefulPartitionedCall/autoencoder/StatefulPartitionedCall/input_control_node/_72"], "attr": {"value": {"tensor": {"dtype": "DT_INT32", "tensorShape": {"dim": [{"size": "3"}]}}}, "dtype": {"type": "DT_INT32"}}}, {"name": "StatefulPartitionedCall/autoencoder/StatefulPartitionedCall/dilated_conv_decoder/dilated_conv_stack/normalize_13/moments/variance/reduction_indices", "op": "Const", "input": ["^Func/StatefulPartitionedCall/autoencoder/StatefulPartitionedCall/input_control_node/_72"], "attr": {"value": {"tensor": {"dtype": "DT_INT32", "tensorShape": {"dim": [{"size": "3"}]}}}, "dtype": {"type": "DT_INT32"}}}, {"name": "StatefulPartitionedCall/autoencoder/StatefulPartitionedCall/dilated_conv_decoder/dilated_conv_stack/normalize_13/add/y", "op": "Const", "input": ["^Func/StatefulPartitionedCall/autoencoder/StatefulPartitionedCall/input_control_node/_72"], "attr": {"value": {"tensor": {"dtype": "DT_FLOAT", "tensorShape": {}}}, "dtype": {"type": "DT_FLOAT"}}}, {"name": "StatefulPartitionedCall/autoencoder/StatefulPartitionedCall/dilated_conv_decoder/dilated_conv_stack/normalize_13/Reshape_1/shape", "op": "Const", "input": ["^Func/StatefulPartitionedCall/autoencoder/StatefulPartitionedCall/input_control_node/_72"], "attr": {"value": {"tensor": {"dtype": "DT_INT32", "tensorShape": {"dim": [{"size": "4"}]}}}, "dtype": {"type": "DT_INT32"}}}, {"name": "Func/StatefulPartitionedCall/autoencoder/StatefulPartitionedCall/input/_131", "op": "Const", "input": ["^Func/StatefulPartitionedCall/autoencoder/StatefulPartitionedCall/input_control_node/_72"], "attr": {"value": {"tensor": {"dtype": "DT_FLOAT", "tensorShape": {"dim": [{"size": "1"}, {"size": "1"}, {"size": "1"}, {"size": "128"}]}}}, "dtype": {"type": "DT_FLOAT"}}}, {"name": "StatefulPartitionedCall/autoencoder/StatefulPartitionedCall/dilated_conv_decoder/dilated_conv_stack/dilated_conv/conv2d_15/Conv2D/SpaceToBatchND/block_shape", "op": "Const", "input": ["^Func/StatefulPartitionedCall/autoencoder/StatefulPartitionedCall/input_control_node/_72"], "attr": {"value": {"tensor": {"dtype": "DT_INT32", "tensorShape": {"dim": [{"size": "2"}]}}}, "dtype": {"type": "DT_INT32"}}}, {"name": "StatefulPartitionedCall/autoencoder/StatefulPartitionedCall/dilated_conv_decoder/dilated_conv_stack/dilated_conv/conv2d_15/Conv2D/SpaceToBatchND/paddings", "op": "Const", "input": ["^Func/StatefulPartitionedCall/autoencoder/StatefulPartitionedCall/input_control_node/_72"], "attr": {"value": {"tensor": {"dtype": "DT_INT32", "tensorShape": {"dim": [{"size": "2"}, {"size": "2"}]}}}, "dtype": {"type": "DT_INT32"}}}, {"name": "Func/StatefulPartitionedCall/autoencoder/StatefulPartitionedCall/input/_133", "op": "Const", "input": ["^Func/StatefulPartitionedCall/autoencoder/StatefulPartitionedCall/input_control_node/_72"], "attr": {"value": {"tensor": {"dtype": "DT_FLOAT", "tensorShape": {"dim": [{"size": "3"}, {"size": "1"}, {"size": "128"}, {"size": "128"}]}}}, "dtype": {"type": "DT_FLOAT"}}}, {"name": "StatefulPartitionedCall/autoencoder/StatefulPartitionedCall/dilated_conv_decoder/dilated_conv_stack/dilated_conv/conv2d_15/Conv2D/BatchToSpaceND/block_shape", "op": "Const", "input": ["^Func/StatefulPartitionedCall/autoencoder/StatefulPartitionedCall/input_control_node/_72"], "attr": {"value": {"tensor": {"dtype": "DT_INT32", "tensorShape": {"dim": [{"size": "2"}]}}}, "dtype": {"type": "DT_INT32"}}}, {"name": "StatefulPartitionedCall/autoencoder/StatefulPartitionedCall/dilated_conv_decoder/dilated_conv_stack/dilated_conv/conv2d_15/Conv2D/BatchToSpaceND/crops", "op": "Const", "input": ["^Func/StatefulPartitionedCall/autoencoder/StatefulPartitionedCall/input_control_node/_72"], "attr": {"dtype": {"type": "DT_INT32"}, "value": {"tensor": {"dtype": "DT_INT32", "tensorShape": {"dim": [{"size": "2"}, {"size": "2"}]}}}}}, {"name": "Func/StatefulPartitionedCall/autoencoder/StatefulPartitionedCall/input/_134", "op": "Const", "input": ["^Func/StatefulPartitionedCall/autoencoder/StatefulPartitionedCall/input_control_node/_72"], "attr": {"value": {"tensor": {"dtype": "DT_FLOAT", "tensorShape": {"dim": [{"size": "128"}]}}}, "dtype": {"type": "DT_FLOAT"}}}, {"name": "StatefulPartitionedCall/autoencoder/StatefulPartitionedCall/dilated_conv_decoder/dilated_conv_stack/normalize_14/Reshape/shape", "op": "Const", "input": ["^Func/StatefulPartitionedCall/autoencoder/StatefulPartitionedCall/input_control_node/_72"], "attr": {"value": {"tensor": {"dtype": "DT_INT32", "tensorShape": {"dim": [{"size": "5"}]}}}, "dtype": {"type": "DT_INT32"}}}, {"name": "StatefulPartitionedCall/autoencoder/StatefulPartitionedCall/dilated_conv_decoder/dilated_conv_stack/normalize_14/moments/mean/reduction_indices", "op": "Const", "input": ["^Func/StatefulPartitionedCall/autoencoder/StatefulPartitionedCall/input_control_node/_72"], "attr": {"value": {"tensor": {"dtype": "DT_INT32", "tensorShape": {"dim": [{"size": "3"}]}}}, "dtype": {"type": "DT_INT32"}}}, {"name": "StatefulPartitionedCall/autoencoder/StatefulPartitionedCall/dilated_conv_decoder/dilated_conv_stack/normalize_14/moments/variance/reduction_indices", "op": "Const", "input": ["^Func/StatefulPartitionedCall/autoencoder/StatefulPartitionedCall/input_control_node/_72"], "attr": {"dtype": {"type": "DT_INT32"}, "value": {"tensor": {"dtype": "DT_INT32", "tensorShape": {"dim": [{"size": "3"}]}}}}}, {"name": "StatefulPartitionedCall/autoencoder/StatefulPartitionedCall/dilated_conv_decoder/dilated_conv_stack/normalize_14/add/y", "op": "Const", "input": ["^Func/StatefulPartitionedCall/autoencoder/StatefulPartitionedCall/input_control_node/_72"], "attr": {"value": {"tensor": {"dtype": "DT_FLOAT", "tensorShape": {}}}, "dtype": {"type": "DT_FLOAT"}}}, {"name": "StatefulPartitionedCall/autoencoder/StatefulPartitionedCall/dilated_conv_decoder/dilated_conv_stack/normalize_14/Reshape_1/shape", "op": "Const", "input": ["^Func/StatefulPartitionedCall/autoencoder/StatefulPartitionedCall/input_control_node/_72"], "attr": {"value": {"tensor": {"dtype": "DT_INT32", "tensorShape": {"dim": [{"size": "4"}]}}}, "dtype": {"type": "DT_INT32"}}}, {"name": "Func/StatefulPartitionedCall/autoencoder/StatefulPartitionedCall/input/_135", "op": "Const", "input": ["^Func/StatefulPartitionedCall/autoencoder/StatefulPartitionedCall/input_control_node/_72"], "attr": {"dtype": {"type": "DT_FLOAT"}, "value": {"tensor": {"dtype": "DT_FLOAT", "tensorShape": {"dim": [{"size": "1"}, {"size": "1"}, {"size": "1"}, {"size": "128"}]}}}}}, {"name": "StatefulPartitionedCall/autoencoder/StatefulPartitionedCall/dilated_conv_decoder/dilated_conv_stack/dilated_conv/conv2d_16/Conv2D/SpaceToBatchND/block_shape", "op": "Const", "input": ["^Func/StatefulPartitionedCall/autoencoder/StatefulPartitionedCall/input_control_node/_72"], "attr": {"dtype": {"type": "DT_INT32"}, "value": {"tensor": {"dtype": "DT_INT32", "tensorShape": {"dim": [{"size": "2"}]}}}}}, {"name": "StatefulPartitionedCall/autoencoder/StatefulPartitionedCall/dilated_conv_decoder/dilated_conv_stack/dilated_conv/conv2d_16/Conv2D/SpaceToBatchND/paddings", "op": "Const", "input": ["^Func/StatefulPartitionedCall/autoencoder/StatefulPartitionedCall/input_control_node/_72"], "attr": {"dtype": {"type": "DT_INT32"}, "value": {"tensor": {"dtype": "DT_INT32", "tensorShape": {"dim": [{"size": "2"}, {"size": "2"}]}}}}}, {"name": "Func/StatefulPartitionedCall/autoencoder/StatefulPartitionedCall/input/_137", "op": "Const", "input": ["^Func/StatefulPartitionedCall/autoencoder/StatefulPartitionedCall/input_control_node/_72"], "attr": {"value": {"tensor": {"dtype": "DT_FLOAT", "tensorShape": {"dim": [{"size": "3"}, {"size": "1"}, {"size": "128"}, {"size": "128"}]}}}, "dtype": {"type": "DT_FLOAT"}}}, {"name": "StatefulPartitionedCall/autoencoder/StatefulPartitionedCall/dilated_conv_decoder/dilated_conv_stack/dilated_conv/conv2d_16/Conv2D/BatchToSpaceND/block_shape", "op": "Const", "input": ["^Func/StatefulPartitionedCall/autoencoder/StatefulPartitionedCall/input_control_node/_72"], "attr": {"value": {"tensor": {"dtype": "DT_INT32", "tensorShape": {"dim": [{"size": "2"}]}}}, "dtype": {"type": "DT_INT32"}}}, {"name": "StatefulPartitionedCall/autoencoder/StatefulPartitionedCall/dilated_conv_decoder/dilated_conv_stack/dilated_conv/conv2d_16/Conv2D/BatchToSpaceND/crops", "op": "Const", "input": ["^Func/StatefulPartitionedCall/autoencoder/StatefulPartitionedCall/input_control_node/_72"], "attr": {"value": {"tensor": {"dtype": "DT_INT32", "tensorShape": {"dim": [{"size": "2"}, {"size": "2"}]}}}, "dtype": {"type": "DT_INT32"}}}, {"name": "Func/StatefulPartitionedCall/autoencoder/StatefulPartitionedCall/input/_138", "op": "Const", "input": ["^Func/StatefulPartitionedCall/autoencoder/StatefulPartitionedCall/input_control_node/_72"], "attr": {"value": {"tensor": {"dtype": "DT_FLOAT", "tensorShape": {"dim": [{"size": "128"}]}}}, "dtype": {"type": "DT_FLOAT"}}}, {"name": "StatefulPartitionedCall/autoencoder/StatefulPartitionedCall/dilated_conv_decoder/dilated_conv_stack/normalize_15/Reshape/shape", "op": "Const", "input": ["^Func/StatefulPartitionedCall/autoencoder/StatefulPartitionedCall/input_control_node/_72"], "attr": {"value": {"tensor": {"dtype": "DT_INT32", "tensorShape": {"dim": [{"size": "5"}]}}}, "dtype": {"type": "DT_INT32"}}}, {"name": "StatefulPartitionedCall/autoencoder/StatefulPartitionedCall/dilated_conv_decoder/dilated_conv_stack/normalize_15/moments/mean/reduction_indices", "op": "Const", "input": ["^Func/StatefulPartitionedCall/autoencoder/StatefulPartitionedCall/input_control_node/_72"], "attr": {"value": {"tensor": {"dtype": "DT_INT32", "tensorShape": {"dim": [{"size": "3"}]}}}, "dtype": {"type": "DT_INT32"}}}, {"name": "StatefulPartitionedCall/autoencoder/StatefulPartitionedCall/dilated_conv_decoder/dilated_conv_stack/normalize_15/moments/variance/reduction_indices", "op": "Const", "input": ["^Func/StatefulPartitionedCall/autoencoder/StatefulPartitionedCall/input_control_node/_72"], "attr": {"value": {"tensor": {"dtype": "DT_INT32", "tensorShape": {"dim": [{"size": "3"}]}}}, "dtype": {"type": "DT_INT32"}}}, {"name": "StatefulPartitionedCall/autoencoder/StatefulPartitionedCall/dilated_conv_decoder/dilated_conv_stack/normalize_15/add/y", "op": "Const", "input": ["^Func/StatefulPartitionedCall/autoencoder/StatefulPartitionedCall/input_control_node/_72"], "attr": {"dtype": {"type": "DT_FLOAT"}, "value": {"tensor": {"dtype": "DT_FLOAT", "tensorShape": {}}}}}, {"name": "StatefulPartitionedCall/autoencoder/StatefulPartitionedCall/dilated_conv_decoder/dilated_conv_stack/normalize_15/Reshape_1/shape", "op": "Const", "input": ["^Func/StatefulPartitionedCall/autoencoder/StatefulPartitionedCall/input_control_node/_72"], "attr": {"value": {"tensor": {"dtype": "DT_INT32", "tensorShape": {"dim": [{"size": "4"}]}}}, "dtype": {"type": "DT_INT32"}}}, {"name": "Func/StatefulPartitionedCall/autoencoder/StatefulPartitionedCall/input/_139", "op": "Const", "input": ["^Func/StatefulPartitionedCall/autoencoder/StatefulPartitionedCall/input_control_node/_72"], "attr": {"value": {"tensor": {"dtype": "DT_FLOAT", "tensorShape": {"dim": [{"size": "1"}, {"size": "1"}, {"size": "1"}, {"size": "128"}]}}}, "dtype": {"type": "DT_FLOAT"}}}, {"name": "StatefulPartitionedCall/autoencoder/StatefulPartitionedCall/dilated_conv_decoder/dilated_conv_stack/strided_slice_1/stack", "op": "Const", "input": ["^Func/StatefulPartitionedCall/autoencoder/StatefulPartitionedCall/input_control_node/_72"], "attr": {"dtype": {"type": "DT_INT32"}, "value": {"tensor": {"dtype": "DT_INT32", "tensorShape": {"dim": [{"size": "4"}]}}}}}, {"name": "StatefulPartitionedCall/autoencoder/StatefulPartitionedCall/dilated_conv_decoder/dilated_conv_stack/strided_slice_1/stack_1", "op": "Const", "input": ["^Func/StatefulPartitionedCall/autoencoder/StatefulPartitionedCall/input_control_node/_72"], "attr": {"dtype": {"type": "DT_INT32"}, "value": {"tensor": {"dtype": "DT_INT32", "tensorShape": {"dim": [{"size": "4"}]}}}}}, {"name": "StatefulPartitionedCall/autoencoder/StatefulPartitionedCall/dilated_conv_decoder/dilated_conv_stack/strided_slice_1/stack_2", "op": "Const", "input": ["^Func/StatefulPartitionedCall/autoencoder/StatefulPartitionedCall/input_control_node/_72"], "attr": {"value": {"tensor": {"dtype": "DT_INT32", "tensorShape": {"dim": [{"size": "4"}]}}}, "dtype": {"type": "DT_INT32"}}}, {"name": "StatefulPartitionedCall/autoencoder/StatefulPartitionedCall/dilated_conv_decoder/dense/Tensordot/Reshape/shape", "op": "Const", "input": ["^Func/StatefulPartitionedCall/autoencoder/StatefulPartitionedCall/input_control_node/_72"], "attr": {"value": {"tensor": {"dtype": "DT_INT32", "tensorShape": {"dim": [{"size": "2"}]}}}, "dtype": {"type": "DT_INT32"}}}, {"name": "Func/StatefulPartitionedCall/autoencoder/StatefulPartitionedCall/input/_141", "op": "Const", "input": ["^Func/StatefulPartitionedCall/autoencoder/StatefulPartitionedCall/input_control_node/_72"], "attr": {"dtype": {"type": "DT_FLOAT"}, "value": {"tensor": {"dtype": "DT_FLOAT", "tensorShape": {"dim": [{"size": "128"}, {"size": "126"}]}}}}}, {"name": "StatefulPartitionedCall/autoencoder/StatefulPartitionedCall/dilated_conv_decoder/dense/Tensordot/shape", "op": "Const", "input": ["^Func/StatefulPartitionedCall/autoencoder/StatefulPartitionedCall/input_control_node/_72"], "attr": {"value": {"tensor": {"dtype": "DT_INT32", "tensorShape": {"dim": [{"size": "3"}]}}}, "dtype": {"type": "DT_INT32"}}}, {"name": "Func/StatefulPartitionedCall/autoencoder/StatefulPartitionedCall/input/_142", "op": "Const", "input": ["^Func/StatefulPartitionedCall/autoencoder/StatefulPartitionedCall/input_control_node/_72"], "attr": {"dtype": {"type": "DT_FLOAT"}, "value": {"tensor": {"dtype": "DT_FLOAT", "tensorShape": {"dim": [{"size": "126"}]}}}}}, {"name": "StatefulPartitionedCall/autoencoder/StatefulPartitionedCall/dilated_conv_decoder/Const", "op": "Const", "input": ["^Func/StatefulPartitionedCall/autoencoder/StatefulPartitionedCall/input_control_node/_72"], "attr": {"value": {"tensor": {"dtype": "DT_INT32", "tensorShape": {"dim": [{"size": "3"}]}}}, "dtype": {"type": "DT_INT32"}}}, {"name": "StatefulPartitionedCall/autoencoder/StatefulPartitionedCall/dilated_conv_decoder/split/split_dim", "op": "Const", "input": ["^Func/StatefulPartitionedCall/autoencoder/StatefulPartitionedCall/input_control_node/_72"], "attr": {"value": {"tensor": {"dtype": "DT_INT32", "tensorShape": {}}}, "dtype": {"type": "DT_INT32"}}}, {"name": "StatefulPartitionedCall/autoencoder/StatefulPartitionedCall/processor_group/Log_1", "op": "Const", "input": ["^Func/StatefulPartitionedCall/autoencoder/StatefulPartitionedCall/input_control_node/_72"], "attr": {"value": {"tensor": {"dtype": "DT_FLOAT", "tensorShape": {}}}, "dtype": {"type": "DT_FLOAT"}}}, {"name": "StatefulPartitionedCall/autoencoder/StatefulPartitionedCall/processor_group/add_1/y", "op": "Const", "input": ["^Func/StatefulPartitionedCall/autoencoder/StatefulPartitionedCall/input_control_node/_72"], "attr": {"dtype": {"type": "DT_FLOAT"}, "value": {"tensor": {"dtype": "DT_FLOAT", "tensorShape": {}}}}}, {"name": "StatefulPartitionedCall/autoencoder/StatefulPartitionedCall/processor_group/Sum/reduction_indices", "op": "Const", "input": ["^Func/StatefulPartitionedCall/autoencoder/StatefulPartitionedCall/input_control_node/_72"], "attr": {"dtype": {"type": "DT_INT32"}, "value": {"tensor": {"dtype": "DT_INT32", "tensorShape": {}}}}}, {"name": "StatefulPartitionedCall/autoencoder/StatefulPartitionedCall/processor_group/strided_slice_4/stack", "op": "Const", "input": ["^Func/StatefulPartitionedCall/autoencoder/StatefulPartitionedCall/input_control_node/_72"], "attr": {"value": {"tensor": {"dtype": "DT_INT32", "tensorShape": {"dim": [{"size": "3"}]}}}, "dtype": {"type": "DT_INT32"}}}, {"name": "StatefulPartitionedCall/autoencoder/StatefulPartitionedCall/processor_group/strided_slice_4/stack_1", "op": "Const", "input": ["^Func/StatefulPartitionedCall/autoencoder/StatefulPartitionedCall/input_control_node/_72"], "attr": {"dtype": {"type": "DT_INT32"}, "value": {"tensor": {"dtype": "DT_INT32", "tensorShape": {"dim": [{"size": "3"}]}}}}}, {"name": "StatefulPartitionedCall/autoencoder/StatefulPartitionedCall/processor_group/strided_slice_4/stack_2", "op": "Const", "input": ["^Func/StatefulPartitionedCall/autoencoder/StatefulPartitionedCall/input_control_node/_72"], "attr": {"dtype": {"type": "DT_INT32"}, "value": {"tensor": {"dtype": "DT_INT32", "tensorShape": {"dim": [{"size": "3"}]}}}}}, {"name": "StatefulPartitionedCall/autoencoder/StatefulPartitionedCall/processor_group/concat/axis", "op": "Const", "input": ["^Func/StatefulPartitionedCall/autoencoder/StatefulPartitionedCall/input_control_node/_72"], "attr": {"dtype": {"type": "DT_INT32"}, "value": {"tensor": {"dtype": "DT_INT32", "tensorShape": {}}}}}, {"name": "StatefulPartitionedCall/autoencoder/StatefulPartitionedCall/processor_group/transpose/perm", "op": "Const", "input": ["^Func/StatefulPartitionedCall/autoencoder/StatefulPartitionedCall/input_control_node/_72"], "attr": {"dtype": {"type": "DT_INT32"}, "value": {"tensor": {"dtype": "DT_INT32", "tensorShape": {"dim": [{"size": "3"}]}}}}}, {"name": "StatefulPartitionedCall/autoencoder/StatefulPartitionedCall/processor_group/strided_slice_5/stack", "op": "Const", "input": ["^Func/StatefulPartitionedCall/autoencoder/StatefulPartitionedCall/input_control_node/_72"], "attr": {"value": {"tensor": {"dtype": "DT_INT32", "tensorShape": {"dim": [{"size": "4"}]}}}, "dtype": {"type": "DT_INT32"}}}, {"name": "StatefulPartitionedCall/autoencoder/StatefulPartitionedCall/processor_group/strided_slice_5/stack_1", "op": "Const", "input": ["^Func/StatefulPartitionedCall/autoencoder/StatefulPartitionedCall/input_control_node/_72"], "attr": {"value": {"tensor": {"dtype": "DT_INT32", "tensorShape": {"dim": [{"size": "4"}]}}}, "dtype": {"type": "DT_INT32"}}}, {"name": "StatefulPartitionedCall/autoencoder/StatefulPartitionedCall/processor_group/strided_slice_5/stack_2", "op": "Const", "input": ["^Func/StatefulPartitionedCall/autoencoder/StatefulPartitionedCall/input_control_node/_72"], "attr": {"value": {"tensor": {"dtype": "DT_INT32", "tensorShape": {"dim": [{"size": "4"}]}}}, "dtype": {"type": "DT_INT32"}}}, {"name": "StatefulPartitionedCall/autoencoder/StatefulPartitionedCall/processor_group/strided_slice_6", "op": "Const", "input": ["^Func/StatefulPartitionedCall/autoencoder/StatefulPartitionedCall/input_control_node/_72"], "attr": {"dtype": {"type": "DT_FLOAT"}, "value": {"tensor": {"dtype": "DT_FLOAT", "tensorShape": {"dim": [{"size": "1"}, {"size": "1"}, {"size": "1"}, {"size": "128"}]}}}}}, {"name": "StatefulPartitionedCall/autoencoder/StatefulPartitionedCall/processor_group/overlap_and_add/concat", "op": "Const", "input": ["^Func/StatefulPartitionedCall/autoencoder/StatefulPartitionedCall/input_control_node/_72"], "attr": {"dtype": {"type": "DT_INT32"}, "value": {"tensor": {"dtype": "DT_INT32", "tensorShape": {"dim": [{"size": "4"}, {"size": "2"}]}}}}}, {"name": "StatefulPartitionedCall/autoencoder/StatefulPartitionedCall/processor_group/overlap_and_add/concat_1", "op": "Const", "input": ["^Func/StatefulPartitionedCall/autoencoder/StatefulPartitionedCall/input_control_node/_72"], "attr": {"value": {"tensor": {"dtype": "DT_INT32", "tensorShape": {"dim": [{"size": "5"}]}}}, "dtype": {"type": "DT_INT32"}}}, {"name": "StatefulPartitionedCall/autoencoder/StatefulPartitionedCall/processor_group/overlap_and_add/transpose/perm", "op": "Const", "input": ["^Func/StatefulPartitionedCall/autoencoder/StatefulPartitionedCall/input_control_node/_72"], "attr": {"value": {"tensor": {"dtype": "DT_INT32", "tensorShape": {"dim": [{"size": "5"}]}}}, "dtype": {"type": "DT_INT32"}}}, {"name": "StatefulPartitionedCall/autoencoder/StatefulPartitionedCall/processor_group/overlap_and_add/concat_3", "op": "Const", "input": ["^Func/StatefulPartitionedCall/autoencoder/StatefulPartitionedCall/input_control_node/_72"], "attr": {"dtype": {"type": "DT_INT32"}, "value": {"tensor": {"dtype": "DT_INT32", "tensorShape": {"dim": [{"size": "4"}]}}}}}, {"name": "StatefulPartitionedCall/autoencoder/StatefulPartitionedCall/processor_group/overlap_and_add/strided_slice/stack", "op": "Const", "input": ["^Func/StatefulPartitionedCall/autoencoder/StatefulPartitionedCall/input_control_node/_72"], "attr": {"dtype": {"type": "DT_INT32"}, "value": {"tensor": {"dtype": "DT_INT32", "tensorShape": {"dim": [{"size": "3"}]}}}}}, {"name": "StatefulPartitionedCall/autoencoder/StatefulPartitionedCall/processor_group/overlap_and_add/strided_slice/stack_1", "op": "Const", "input": ["^Func/StatefulPartitionedCall/autoencoder/StatefulPartitionedCall/input_control_node/_72"], "attr": {"value": {"tensor": {"dtype": "DT_INT32", "tensorShape": {"dim": [{"size": "3"}]}}}, "dtype": {"type": "DT_INT32"}}}, {"name": "StatefulPartitionedCall/autoencoder/StatefulPartitionedCall/processor_group/overlap_and_add/strided_slice/stack_2", "op": "Const", "input": ["^Func/StatefulPartitionedCall/autoencoder/StatefulPartitionedCall/input_control_node/_72"], "attr": {"value": {"tensor": {"dtype": "DT_INT32", "tensorShape": {"dim": [{"size": "3"}]}}}, "dtype": {"type": "DT_INT32"}}}, {"name": "StatefulPartitionedCall/autoencoder/StatefulPartitionedCall/processor_group/overlap_and_add/concat_4", "op": "Const", "input": ["^Func/StatefulPartitionedCall/autoencoder/StatefulPartitionedCall/input_control_node/_72"], "attr": {"dtype": {"type": "DT_INT32"}, "value": {"tensor": {"dtype": "DT_INT32", "tensorShape": {"dim": [{"size": "5"}]}}}}}, {"name": "StatefulPartitionedCall/autoencoder/StatefulPartitionedCall/processor_group/overlap_and_add/Sum/reduction_indices", "op": "Const", "input": ["^Func/StatefulPartitionedCall/autoencoder/StatefulPartitionedCall/input_control_node/_72"], "attr": {"value": {"tensor": {"dtype": "DT_INT32", "tensorShape": {}}}, "dtype": {"type": "DT_INT32"}}}, {"name": "StatefulPartitionedCall/autoencoder/StatefulPartitionedCall/processor_group/overlap_and_add/concat_5", "op": "Const", "input": ["^Func/StatefulPartitionedCall/autoencoder/StatefulPartitionedCall/input_control_node/_72"], "attr": {"dtype": {"type": "DT_INT32"}, "value": {"tensor": {"dtype": "DT_INT32", "tensorShape": {"dim": [{"size": "3"}]}}}}}, {"name": "StatefulPartitionedCall/autoencoder/StatefulPartitionedCall/processor_group/overlap_and_add/strided_slice_1/stack", "op": "Const", "input": ["^Func/StatefulPartitionedCall/autoencoder/StatefulPartitionedCall/input_control_node/_72"], "attr": {"value": {"tensor": {"dtype": "DT_INT32", "tensorShape": {"dim": [{"size": "2"}]}}}, "dtype": {"type": "DT_INT32"}}}, {"name": "StatefulPartitionedCall/autoencoder/StatefulPartitionedCall/processor_group/overlap_and_add/strided_slice_1/stack_1", "op": "Const", "input": ["^Func/StatefulPartitionedCall/autoencoder/StatefulPartitionedCall/input_control_node/_72"], "attr": {"dtype": {"type": "DT_INT32"}, "value": {"tensor": {"dtype": "DT_INT32", "tensorShape": {"dim": [{"size": "2"}]}}}}}, {"name": "StatefulPartitionedCall/autoencoder/StatefulPartitionedCall/processor_group/overlap_and_add/strided_slice_1/stack_2", "op": "Const", "input": ["^Func/StatefulPartitionedCall/autoencoder/StatefulPartitionedCall/input_control_node/_72"], "attr": {"dtype": {"type": "DT_INT32"}, "value": {"tensor": {"dtype": "DT_INT32", "tensorShape": {"dim": [{"size": "2"}]}}}}}, {"name": "StatefulPartitionedCall/autoencoder/StatefulPartitionedCall/processor_group/transpose_1/perm", "op": "Const", "input": ["^Func/StatefulPartitionedCall/autoencoder/StatefulPartitionedCall/input_control_node/_72"], "attr": {"dtype": {"type": "DT_INT32"}, "value": {"tensor": {"dtype": "DT_INT32", "tensorShape": {"dim": [{"size": "3"}]}}}}}, {"name": "StatefulPartitionedCall/autoencoder/StatefulPartitionedCall/processor_group/strided_slice_7/stack", "op": "Const", "input": ["^Func/StatefulPartitionedCall/autoencoder/StatefulPartitionedCall/input_control_node/_72"], "attr": {"value": {"tensor": {"dtype": "DT_INT32", "tensorShape": {"dim": [{"size": "3"}]}}}, "dtype": {"type": "DT_INT32"}}}, {"name": "StatefulPartitionedCall/autoencoder/StatefulPartitionedCall/processor_group/strided_slice_7/stack_1", "op": "Const", "input": ["^Func/StatefulPartitionedCall/autoencoder/StatefulPartitionedCall/input_control_node/_72"], "attr": {"dtype": {"type": "DT_INT32"}, "value": {"tensor": {"dtype": "DT_INT32", "tensorShape": {"dim": [{"size": "3"}]}}}}}, {"name": "StatefulPartitionedCall/autoencoder/StatefulPartitionedCall/processor_group/strided_slice_7/stack_2", "op": "Const", "input": ["^Func/StatefulPartitionedCall/autoencoder/StatefulPartitionedCall/input_control_node/_72"], "attr": {"dtype": {"type": "DT_INT32"}, "value": {"tensor": {"dtype": "DT_INT32", "tensorShape": {"dim": [{"size": "3"}]}}}}}, {"name": "StatefulPartitionedCall/autoencoder/StatefulPartitionedCall/strided_slice_4/stack", "op": "Const", "input": ["^Func/StatefulPartitionedCall/autoencoder/StatefulPartitionedCall/input_control_node/_72"], "attr": {"value": {"tensor": {"dtype": "DT_INT32", "tensorShape": {"dim": [{"size": "2"}]}}}, "dtype": {"type": "DT_INT32"}}}, {"name": "StatefulPartitionedCall/autoencoder/StatefulPartitionedCall/strided_slice_4/stack_1", "op": "Const", "input": ["^Func/StatefulPartitionedCall/autoencoder/StatefulPartitionedCall/input_control_node/_72"], "attr": {"value": {"tensor": {"dtype": "DT_INT32", "tensorShape": {"dim": [{"size": "2"}]}}}, "dtype": {"type": "DT_INT32"}}}, {"name": "StatefulPartitionedCall/autoencoder/StatefulPartitionedCall/strided_slice_4/stack_2", "op": "Const", "input": ["^Func/StatefulPartitionedCall/autoencoder/StatefulPartitionedCall/input_control_node/_72"], "attr": {"dtype": {"type": "DT_INT32"}, "value": {"tensor": {"dtype": "DT_INT32", "tensorShape": {"dim": [{"size": "2"}]}}}}}, {"name": "StatefulPartitionedCall/autoencoder/StatefulPartitionedCall/strided_slice_5/stack", "op": "Const", "input": ["^Func/StatefulPartitionedCall/autoencoder/StatefulPartitionedCall/input_control_node/_72"], "attr": {"value": {"tensor": {"dtype": "DT_INT32", "tensorShape": {"dim": [{"size": "3"}]}}}, "dtype": {"type": "DT_INT32"}}}, {"name": "StatefulPartitionedCall/autoencoder/StatefulPartitionedCall/strided_slice_5/stack_1", "op": "Const", "input": ["^Func/StatefulPartitionedCall/autoencoder/StatefulPartitionedCall/input_control_node/_72"], "attr": {"dtype": {"type": "DT_INT32"}, "value": {"tensor": {"dtype": "DT_INT32", "tensorShape": {"dim": [{"size": "3"}]}}}}}, {"name": "StatefulPartitionedCall/autoencoder/StatefulPartitionedCall/strided_slice_5/stack_2", "op": "Const", "input": ["^Func/StatefulPartitionedCall/autoencoder/StatefulPartitionedCall/input_control_node/_72"], "attr": {"dtype": {"type": "DT_INT32"}, "value": {"tensor": {"dtype": "DT_INT32", "tensorShape": {"dim": [{"size": "3"}]}}}}}, {"name": "StatefulPartitionedCall/autoencoder/StatefulPartitionedCall/strided_slice_6/stack", "op": "Const", "input": ["^Func/StatefulPartitionedCall/autoencoder/StatefulPartitionedCall/input_control_node/_72"], "attr": {"value": {"tensor": {"dtype": "DT_INT32", "tensorShape": {"dim": [{"size": "4"}]}}}, "dtype": {"type": "DT_INT32"}}}, {"name": "StatefulPartitionedCall/autoencoder/StatefulPartitionedCall/strided_slice_6/stack_1", "op": "Const", "input": ["^Func/StatefulPartitionedCall/autoencoder/StatefulPartitionedCall/input_control_node/_72"], "attr": {"dtype": {"type": "DT_INT32"}, "value": {"tensor": {"dtype": "DT_INT32", "tensorShape": {"dim": [{"size": "4"}]}}}}}, {"name": "StatefulPartitionedCall/autoencoder/StatefulPartitionedCall/strided_slice_6/stack_2", "op": "Const", "input": ["^Func/StatefulPartitionedCall/autoencoder/StatefulPartitionedCall/input_control_node/_72"], "attr": {"value": {"tensor": {"dtype": "DT_INT32", "tensorShape": {"dim": [{"size": "4"}]}}}, "dtype": {"type": "DT_INT32"}}}, {"name": "StatefulPartitionedCall/autoencoder/StatefulPartitionedCall/resize_1/size", "op": "Const", "input": ["^Func/StatefulPartitionedCall/autoencoder/StatefulPartitionedCall/input_control_node/_72"], "attr": {"value": {"tensor": {"dtype": "DT_INT32", "tensorShape": {"dim": [{"size": "2"}]}}}, "dtype": {"type": "DT_INT32"}}}, {"name": "StatefulPartitionedCall/autoencoder/StatefulPartitionedCall/strided_slice_7/stack", "op": "Const", "input": ["^Func/StatefulPartitionedCall/autoencoder/StatefulPartitionedCall/input_control_node/_72"], "attr": {"dtype": {"type": "DT_INT32"}, "value": {"tensor": {"dtype": "DT_INT32", "tensorShape": {"dim": [{"size": "4"}]}}}}}, {"name": "StatefulPartitionedCall/autoencoder/StatefulPartitionedCall/strided_slice_7/stack_1", "op": "Const", "input": ["^Func/StatefulPartitionedCall/autoencoder/StatefulPartitionedCall/input_control_node/_72"], "attr": {"dtype": {"type": "DT_INT32"}, "value": {"tensor": {"dtype": "DT_INT32", "tensorShape": {"dim": [{"size": "4"}]}}}}}, {"name": "StatefulPartitionedCall/autoencoder/StatefulPartitionedCall/strided_slice_7/stack_2", "op": "Const", "input": ["^Func/StatefulPartitionedCall/autoencoder/StatefulPartitionedCall/input_control_node/_72"], "attr": {"dtype": {"type": "DT_INT32"}, "value": {"tensor": {"dtype": "DT_INT32", "tensorShape": {"dim": [{"size": "4"}]}}}}}, {"name": "StatefulPartitionedCall/autoencoder/StatefulPartitionedCall/processor_group/strided_slice_1", "op": "Const", "input": ["^Func/StatefulPartitionedCall/autoencoder/StatefulPartitionedCall/input_control_node/_72"], "attr": {"value": {"tensor": {"dtype": "DT_FLOAT", "tensorShape": {"dim": [{"size": "1"}, {"size": "1"}, {"size": "60"}]}}}, "dtype": {"type": "DT_FLOAT"}}}, {"name": "StatefulPartitionedCall/autoencoder/StatefulPartitionedCall/processor_group/strided_slice_2/stack", "op": "Const", "input": ["^Func/StatefulPartitionedCall/autoencoder/StatefulPartitionedCall/input_control_node/_72"], "attr": {"value": {"tensor": {"dtype": "DT_INT32", "tensorShape": {"dim": [{"size": "4"}]}}}, "dtype": {"type": "DT_INT32"}}}, {"name": "StatefulPartitionedCall/autoencoder/StatefulPartitionedCall/processor_group/strided_slice_2/stack_1", "op": "Const", "input": ["^Func/StatefulPartitionedCall/autoencoder/StatefulPartitionedCall/input_control_node/_72"], "attr": {"value": {"tensor": {"dtype": "DT_INT32", "tensorShape": {"dim": [{"size": "4"}]}}}, "dtype": {"type": "DT_INT32"}}}, {"name": "StatefulPartitionedCall/autoencoder/StatefulPartitionedCall/processor_group/strided_slice_2/stack_2", "op": "Const", "input": ["^Func/StatefulPartitionedCall/autoencoder/StatefulPartitionedCall/input_control_node/_72"], "attr": {"dtype": {"type": "DT_INT32"}, "value": {"tensor": {"dtype": "DT_INT32", "tensorShape": {"dim": [{"size": "4"}]}}}}}, {"name": "StatefulPartitionedCall/autoencoder/StatefulPartitionedCall/processor_group/resize/size", "op": "Const", "input": ["^Func/StatefulPartitionedCall/autoencoder/StatefulPartitionedCall/input_control_node/_72"], "attr": {"dtype": {"type": "DT_INT32"}, "value": {"tensor": {"dtype": "DT_INT32", "tensorShape": {"dim": [{"size": "2"}]}}}}}, {"name": "StatefulPartitionedCall/autoencoder/StatefulPartitionedCall/processor_group/strided_slice_3/stack", "op": "Const", "input": ["^Func/StatefulPartitionedCall/autoencoder/StatefulPartitionedCall/input_control_node/_72"], "attr": {"dtype": {"type": "DT_INT32"}, "value": {"tensor": {"dtype": "DT_INT32", "tensorShape": {"dim": [{"size": "4"}]}}}}}, {"name": "StatefulPartitionedCall/autoencoder/StatefulPartitionedCall/processor_group/strided_slice_3/stack_1", "op": "Const", "input": ["^Func/StatefulPartitionedCall/autoencoder/StatefulPartitionedCall/input_control_node/_72"], "attr": {"value": {"tensor": {"dtype": "DT_INT32", "tensorShape": {"dim": [{"size": "4"}]}}}, "dtype": {"type": "DT_INT32"}}}, {"name": "StatefulPartitionedCall/autoencoder/StatefulPartitionedCall/processor_group/strided_slice_3/stack_2", "op": "Const", "input": ["^Func/StatefulPartitionedCall/autoencoder/StatefulPartitionedCall/input_control_node/_72"], "attr": {"value": {"tensor": {"dtype": "DT_INT32", "tensorShape": {"dim": [{"size": "4"}]}}}, "dtype": {"type": "DT_INT32"}}}, {"name": "StatefulPartitionedCall/autoencoder/StatefulPartitionedCall/processor_group/mul_6", "op": "Const", "input": ["^Func/StatefulPartitionedCall/autoencoder/StatefulPartitionedCall/input_control_node/_72"], "attr": {"dtype": {"type": "DT_FLOAT"}, "value": {"tensor": {"dtype": "DT_FLOAT", "tensorShape": {}}}}}, {"name": "StatefulPartitionedCall/autoencoder/StatefulPartitionedCall/processor_group/Reshape/shape", "op": "Const", "input": ["^Func/StatefulPartitionedCall/autoencoder/StatefulPartitionedCall/input_control_node/_72"], "attr": {"value": {"tensor": {"dtype": "DT_INT32", "tensorShape": {"dim": [{"size": "4"}]}}}, "dtype": {"type": "DT_INT32"}}}, {"name": "StatefulPartitionedCall/autoencoder/StatefulPartitionedCall/processor_group/Cumsum/axis", "op": "Const", "input": ["^Func/StatefulPartitionedCall/autoencoder/StatefulPartitionedCall/input_control_node/_72"], "attr": {"dtype": {"type": "DT_INT32"}, "value": {"tensor": {"dtype": "DT_INT32", "tensorShape": {}}}}}, {"name": "StatefulPartitionedCall/autoencoder/StatefulPartitionedCall/processor_group/strided_slice_8/stack", "op": "Const", "input": ["^Func/StatefulPartitionedCall/autoencoder/StatefulPartitionedCall/input_control_node/_72"], "attr": {"value": {"tensor": {"dtype": "DT_INT32", "tensorShape": {"dim": [{"size": "4"}]}}}, "dtype": {"type": "DT_INT32"}}}, {"name": "StatefulPartitionedCall/autoencoder/StatefulPartitionedCall/processor_group/strided_slice_8/stack_1", "op": "Const", "input": ["^Func/StatefulPartitionedCall/autoencoder/StatefulPartitionedCall/input_control_node/_72"], "attr": {"value": {"tensor": {"dtype": "DT_INT32", "tensorShape": {"dim": [{"size": "4"}]}}}, "dtype": {"type": "DT_INT32"}}}, {"name": "StatefulPartitionedCall/autoencoder/StatefulPartitionedCall/processor_group/strided_slice_8/stack_2", "op": "Const", "input": ["^Func/StatefulPartitionedCall/autoencoder/StatefulPartitionedCall/input_control_node/_72"], "attr": {"dtype": {"type": "DT_INT32"}, "value": {"tensor": {"dtype": "DT_INT32", "tensorShape": {"dim": [{"size": "4"}]}}}}}, {"name": "StatefulPartitionedCall/autoencoder/StatefulPartitionedCall/processor_group/mod/y", "op": "Const", "input": ["^Func/StatefulPartitionedCall/autoencoder/StatefulPartitionedCall/input_control_node/_72"], "attr": {"value": {"tensor": {"dtype": "DT_FLOAT", "tensorShape": {}}}, "dtype": {"type": "DT_FLOAT"}}}, {"name": "StatefulPartitionedCall/autoencoder/StatefulPartitionedCall/processor_group/Pad/paddings", "op": "Const", "input": ["^Func/StatefulPartitionedCall/autoencoder/StatefulPartitionedCall/input_control_node/_72"], "attr": {"dtype": {"type": "DT_INT32"}, "value": {"tensor": {"dtype": "DT_INT32", "tensorShape": {"dim": [{"size": "4"}, {"size": "2"}]}}}}}, {"name": "StatefulPartitionedCall/autoencoder/StatefulPartitionedCall/processor_group/strided_slice_9/stack", "op": "Const", "input": ["^Func/StatefulPartitionedCall/autoencoder/StatefulPartitionedCall/input_control_node/_72"], "attr": {"value": {"tensor": {"dtype": "DT_INT32", "tensorShape": {"dim": [{"size": "3"}]}}}, "dtype": {"type": "DT_INT32"}}}, {"name": "StatefulPartitionedCall/autoencoder/StatefulPartitionedCall/processor_group/strided_slice_9/stack_1", "op": "Const", "input": ["^Func/StatefulPartitionedCall/autoencoder/StatefulPartitionedCall/input_control_node/_72"], "attr": {"dtype": {"type": "DT_INT32"}, "value": {"tensor": {"dtype": "DT_INT32", "tensorShape": {"dim": [{"size": "3"}]}}}}}, {"name": "StatefulPartitionedCall/autoencoder/StatefulPartitionedCall/processor_group/strided_slice_9/stack_2", "op": "Const", "input": ["^Func/StatefulPartitionedCall/autoencoder/StatefulPartitionedCall/input_control_node/_72"], "attr": {"value": {"tensor": {"dtype": "DT_INT32", "tensorShape": {"dim": [{"size": "3"}]}}}, "dtype": {"type": "DT_INT32"}}}, {"name": "StatefulPartitionedCall/autoencoder/StatefulPartitionedCall/processor_group/Cumsum_1/axis", "op": "Const", "input": ["^Func/StatefulPartitionedCall/autoencoder/StatefulPartitionedCall/input_control_node/_72"], "attr": {"value": {"tensor": {"dtype": "DT_INT32", "tensorShape": {}}}, "dtype": {"type": "DT_INT32"}}}, {"name": "StatefulPartitionedCall/autoencoder/StatefulPartitionedCall/processor_group/mod_1/y", "op": "Const", "input": ["^Func/StatefulPartitionedCall/autoencoder/StatefulPartitionedCall/input_control_node/_72"], "attr": {"dtype": {"type": "DT_FLOAT"}, "value": {"tensor": {"dtype": "DT_FLOAT", "tensorShape": {}}}}}, {"name": "StatefulPartitionedCall/autoencoder/StatefulPartitionedCall/processor_group/mod_2/y", "op": "Const", "input": ["^Func/StatefulPartitionedCall/autoencoder/StatefulPartitionedCall/input_control_node/_72"], "attr": {"dtype": {"type": "DT_FLOAT"}, "value": {"tensor": {"dtype": "DT_FLOAT", "tensorShape": {}}}}}, {"name": "StatefulPartitionedCall/autoencoder/StatefulPartitionedCall/processor_group/Reshape_1/shape", "op": "Const", "input": ["^Func/StatefulPartitionedCall/autoencoder/StatefulPartitionedCall/input_control_node/_72"], "attr": {"value": {"tensor": {"dtype": "DT_INT32", "tensorShape": {"dim": [{"size": "3"}]}}}, "dtype": {"type": "DT_INT32"}}}, {"name": "StatefulPartitionedCall/autoencoder/StatefulPartitionedCall/processor_group/Sum_1/reduction_indices", "op": "Const", "input": ["^Func/StatefulPartitionedCall/autoencoder/StatefulPartitionedCall/input_control_node/_72"], "attr": {"dtype": {"type": "DT_INT32"}, "value": {"tensor": {"dtype": "DT_INT32", "tensorShape": {}}}}}, {"name": "StatefulPartitionedCall/autoencoder/StatefulPartitionedCall/processor_group/random_uniform/RandomUniform", "op": "RandomUniform", "input": ["StatefulPartitionedCall/autoencoder/StatefulPartitionedCall/processor_group/random_uniform/shape"], "attr": {"seed": {"i": "0"}, "seed2": {"i": "0"}, "dtype": {"type": "DT_FLOAT"}, "T": {"type": "DT_INT32"}}}, {"name": "StatefulPartitionedCall/autoencoder/StatefulPartitionedCall/processor_group/frame/zeros", "op": "Fill", "input": ["StatefulPartitionedCall/autoencoder/StatefulPartitionedCall/processor_group/frame/zeros/packed", "StatefulPartitionedCall/autoencoder/StatefulPartitionedCall/processor_group/frame/zeros/Const"], "attr": {"index_type": {"type": "DT_INT32"}, "T": {"type": "DT_INT32"}}}, {"name": "StatefulPartitionedCall/autoencoder/StatefulPartitionedCall/processor_group/frame/zeros_1", "op": "Fill", "input": ["StatefulPartitionedCall/autoencoder/StatefulPartitionedCall/processor_group/frame/zeros_1/packed", "StatefulPartitionedCall/autoencoder/StatefulPartitionedCall/processor_group/frame/zeros_1/Const"], "attr": {"T": {"type": "DT_INT32"}, "index_type": {"type": "DT_INT32"}}}, {"name": "StatefulPartitionedCall/autoencoder/StatefulPartitionedCall/processor_group/frame/ones_like", "op": "Fill", "input": ["StatefulPartitionedCall/autoencoder/StatefulPartitionedCall/processor_group/frame/ones_like/Shape", "StatefulPartitionedCall/autoencoder/StatefulPartitionedCall/processor_group/frame/ones_like/Const"], "attr": {"index_type": {"type": "DT_INT32"}, "T": {"type": "DT_INT32"}}}, {"name": "StatefulPartitionedCall/autoencoder/StatefulPartitionedCall/processor_group/zeros_like_2", "op": "Fill", "input": ["StatefulPartitionedCall/autoencoder/StatefulPartitionedCall/processor_group/zeros_like_2/shape_as_tensor", "StatefulPartitionedCall/autoencoder/StatefulPartitionedCall/processor_group/zeros_like_2/Const"], "attr": {"T": {"type": "DT_FLOAT"}, "index_type": {"type": "DT_INT32"}}}, {"name": "StatefulPartitionedCall/autoencoder/StatefulPartitionedCall/processor_group/zeros_like_1", "op": "Fill", "input": ["StatefulPartitionedCall/autoencoder/StatefulPartitionedCall/processor_group/zeros_like_1/shape_as_tensor", "StatefulPartitionedCall/autoencoder/StatefulPartitionedCall/processor_group/zeros_like_1/Const"], "attr": {"index_type": {"type": "DT_INT32"}, "T": {"type": "DT_FLOAT"}}}, {"name": "StatefulPartitionedCall/autoencoder/StatefulPartitionedCall/processor_group/zeros_like", "op": "Fill", "input": ["StatefulPartitionedCall/autoencoder/StatefulPartitionedCall/processor_group/zeros_like/shape_as_tensor", "StatefulPartitionedCall/autoencoder/StatefulPartitionedCall/processor_group/zeros_like/Const"], "attr": {"index_type": {"type": "DT_INT32"}, "T": {"type": "DT_FLOAT"}}}, {"name": "StatefulPartitionedCall/autoencoder/StatefulPartitionedCall/strided_slice", "op": "StridedSlice", "input": ["loudness_db", "StatefulPartitionedCall/autoencoder/StatefulPartitionedCall/strided_slice/stack", "StatefulPartitionedCall/autoencoder/StatefulPartitionedCall/strided_slice/stack_1", "StatefulPartitionedCall/autoencoder/StatefulPartitionedCall/strided_slice/stack_2"], "attr": {"T": {"type": "DT_FLOAT"}, "ellipsis_mask": {"i": "0"}, "begin_mask": {"i": "2"}, "Index": {"type": "DT_INT32"}, "new_axis_mask": {"i": "1"}, "shrink_axis_mask": {"i": "0"}, "end_mask": {"i": "2"}}}, {"name": "StatefulPartitionedCall/autoencoder/StatefulPartitionedCall/strided_slice_4", "op": "StridedSlice", "input": ["f0_hz", "StatefulPartitionedCall/autoencoder/StatefulPartitionedCall/strided_slice_4/stack", "StatefulPartitionedCall/autoencoder/StatefulPartitionedCall/strided_slice_4/stack_1", "StatefulPartitionedCall/autoencoder/StatefulPartitionedCall/strided_slice_4/stack_2"], "attr": {"ellipsis_mask": {"i": "0"}, "T": {"type": "DT_FLOAT"}, "Index": {"type": "DT_INT32"}, "begin_mask": {"i": "2"}, "shrink_axis_mask": {"i": "0"}, "end_mask": {"i": "2"}, "new_axis_mask": {"i": "1"}}}, {"name": "StatefulPartitionedCall/autoencoder/StatefulPartitionedCall/processor_group/random_uniform/mul", "op": "Mul", "input": ["StatefulPartitionedCall/autoencoder/StatefulPartitionedCall/processor_group/random_uniform/RandomUniform", "StatefulPartitionedCall/autoencoder/StatefulPartitionedCall/processor_group/random_uniform/sub"], "attr": {"T": {"type": "DT_FLOAT"}}}, {"name": "StatefulPartitionedCall/autoencoder/StatefulPartitionedCall/processor_group/frame/concat", "op": "ConcatV2", "input": ["StatefulPartitionedCall/autoencoder/StatefulPartitionedCall/processor_group/frame/zeros", "StatefulPartitionedCall/autoencoder/StatefulPartitionedCall/processor_group/frame/packed", "StatefulPartitionedCall/autoencoder/StatefulPartitionedCall/processor_group/frame/zeros_1", "StatefulPartitionedCall/autoencoder/StatefulPartitionedCall/processor_group/frame/concat/axis"], "attr": {"Tidx": {"type": "DT_INT32"}, "N": {"i": "3"}, "T": {"type": "DT_INT32"}}}, {"name": "StatefulPartitionedCall/autoencoder/StatefulPartitionedCall/strided_slice_1", "op": "StridedSlice", "input": ["StatefulPartitionedCall/autoencoder/StatefulPartitionedCall/strided_slice", "StatefulPartitionedCall/autoencoder/StatefulPartitionedCall/strided_slice_1/stack", "StatefulPartitionedCall/autoencoder/StatefulPartitionedCall/strided_slice_1/stack_1", "StatefulPartitionedCall/autoencoder/StatefulPartitionedCall/strided_slice_1/stack_2"], "attr": {"shrink_axis_mask": {"i": "0"}, "begin_mask": {"i": "3"}, "T": {"type": "DT_FLOAT"}, "end_mask": {"i": "3"}, "ellipsis_mask": {"i": "0"}, "new_axis_mask": {"i": "4"}, "Index": {"type": "DT_INT32"}}}, {"name": "StatefulPartitionedCall/autoencoder/StatefulPartitionedCall/strided_slice_5", "op": "StridedSlice", "input": ["StatefulPartitionedCall/autoencoder/StatefulPartitionedCall/strided_slice_4", "StatefulPartitionedCall/autoencoder/StatefulPartitionedCall/strided_slice_5/stack", "StatefulPartitionedCall/autoencoder/StatefulPartitionedCall/strided_slice_5/stack_1", "StatefulPartitionedCall/autoencoder/StatefulPartitionedCall/strided_slice_5/stack_2"], "attr": {"new_axis_mask": {"i": "4"}, "T": {"type": "DT_FLOAT"}, "ellipsis_mask": {"i": "0"}, "shrink_axis_mask": {"i": "0"}, "begin_mask": {"i": "3"}, "Index": {"type": "DT_INT32"}, "end_mask": {"i": "3"}}}, {"name": "StatefulPartitionedCall/autoencoder/StatefulPartitionedCall/processor_group/random_uniform", "op": "Add", "input": ["StatefulPartitionedCall/autoencoder/StatefulPartitionedCall/processor_group/random_uniform/mul", "StatefulPartitionedCall/autoencoder/StatefulPartitionedCall/processor_group/random_uniform/min"], "attr": {"T": {"type": "DT_FLOAT"}}}, {"name": "StatefulPartitionedCall/autoencoder/StatefulPartitionedCall/strided_slice_2", "op": "StridedSlice", "input": ["StatefulPartitionedCall/autoencoder/StatefulPartitionedCall/strided_slice_1", "StatefulPartitionedCall/autoencoder/StatefulPartitionedCall/strided_slice_2/stack", "StatefulPartitionedCall/autoencoder/StatefulPartitionedCall/strided_slice_2/stack_1", "StatefulPartitionedCall/autoencoder/StatefulPartitionedCall/strided_slice_2/stack_2"], "attr": {"end_mask": {"i": "11"}, "Index": {"type": "DT_INT32"}, "ellipsis_mask": {"i": "0"}, "shrink_axis_mask": {"i": "0"}, "new_axis_mask": {"i": "4"}, "T": {"type": "DT_FLOAT"}, "begin_mask": {"i": "11"}}}, {"name": "StatefulPartitionedCall/autoencoder/StatefulPartitionedCall/strided_slice_6", "op": "StridedSlice", "input": ["StatefulPartitionedCall/autoencoder/StatefulPartitionedCall/strided_slice_5", "StatefulPartitionedCall/autoencoder/StatefulPartitionedCall/strided_slice_6/stack", "StatefulPartitionedCall/autoencoder/StatefulPartitionedCall/strided_slice_6/stack_1", "StatefulPartitionedCall/autoencoder/StatefulPartitionedCall/strided_slice_6/stack_2"], "attr": {"new_axis_mask": {"i": "4"}, "shrink_axis_mask": {"i": "0"}, "begin_mask": {"i": "11"}, "Index": {"type": "DT_INT32"}, "T": {"type": "DT_FLOAT"}, "end_mask": {"i": "11"}, "ellipsis_mask": {"i": "0"}}}, {"name": "StatefulPartitionedCall/autoencoder/StatefulPartitionedCall/processor_group/frame/PadV2", "op": "PadV2", "input": ["StatefulPartitionedCall/autoencoder/StatefulPartitionedCall/processor_group/random_uniform", "StatefulPartitionedCall/autoencoder/StatefulPartitionedCall/processor_group/frame/concat", "StatefulPartitionedCall/autoencoder/StatefulPartitionedCall/processor_group/frame/Const"], "attr": {"T": {"type": "DT_FLOAT"}, "Tpaddings": {"type": "DT_INT32"}}}, {"name": "StatefulPartitionedCall/autoencoder/StatefulPartitionedCall/resize/ResizeBilinear", "op": "ResizeBilinear", "input": ["StatefulPartitionedCall/autoencoder/StatefulPartitionedCall/strided_slice_2", "StatefulPartitionedCall/autoencoder/StatefulPartitionedCall/resize/size"], "attr": {"align_corners": {"b": false}, "half_pixel_centers": {"b": false}, "T": {"type": "DT_FLOAT"}}}, {"name": "StatefulPartitionedCall/autoencoder/StatefulPartitionedCall/resize_1/ResizeBilinear", "op": "ResizeBilinear", "input": ["StatefulPartitionedCall/autoencoder/StatefulPartitionedCall/strided_slice_6", "StatefulPartitionedCall/autoencoder/StatefulPartitionedCall/resize_1/size"], "attr": {"align_corners": {"b": false}, "half_pixel_centers": {"b": false}, "T": {"type": "DT_FLOAT"}}}, {"name": "StatefulPartitionedCall/autoencoder/StatefulPartitionedCall/processor_group/frame/StridedSlice", "op": "StridedSlice", "input": ["StatefulPartitionedCall/autoencoder/StatefulPartitionedCall/processor_group/frame/PadV2", "StatefulPartitionedCall/autoencoder/StatefulPartitionedCall/processor_group/frame/zeros_like", "StatefulPartitionedCall/autoencoder/StatefulPartitionedCall/processor_group/frame/concat_1", "StatefulPartitionedCall/autoencoder/StatefulPartitionedCall/processor_group/frame/ones_like"], "attr": {"new_axis_mask": {"i": "0"}, "Index": {"type": "DT_INT32"}, "ellipsis_mask": {"i": "0"}, "shrink_axis_mask": {"i": "0"}, "end_mask": {"i": "0"}, "begin_mask": {"i": "0"}, "T": {"type": "DT_FLOAT"}}}, {"name": "StatefulPartitionedCall/autoencoder/StatefulPartitionedCall/strided_slice_3", "op": "StridedSlice", "input": ["StatefulPartitionedCall/autoencoder/StatefulPartitionedCall/resize/ResizeBilinear", "StatefulPartitionedCall/autoencoder/StatefulPartitionedCall/strided_slice_3/stack", "StatefulPartitionedCall/autoencoder/StatefulPartitionedCall/strided_slice_3/stack_1", "StatefulPartitionedCall/autoencoder/StatefulPartitionedCall/strided_slice_3/stack_2"], "attr": {"shrink_axis_mask": {"i": "4"}, "end_mask": {"i": "11"}, "T": {"type": "DT_FLOAT"}, "new_axis_mask": {"i": "0"}, "begin_mask": {"i": "11"}, "Index": {"type": "DT_INT32"}, "ellipsis_mask": {"i": "0"}}}, {"name": "StatefulPartitionedCall/autoencoder/StatefulPartitionedCall/strided_slice_7", "op": "StridedSlice", "input": ["StatefulPartitionedCall/autoencoder/StatefulPartitionedCall/resize_1/ResizeBilinear", "StatefulPartitionedCall/autoencoder/StatefulPartitionedCall/strided_slice_7/stack", "StatefulPartitionedCall/autoencoder/StatefulPartitionedCall/strided_slice_7/stack_1", "StatefulPartitionedCall/autoencoder/StatefulPartitionedCall/strided_slice_7/stack_2"], "attr": {"end_mask": {"i": "11"}, "Index": {"type": "DT_INT32"}, "begin_mask": {"i": "11"}, "new_axis_mask": {"i": "0"}, "ellipsis_mask": {"i": "0"}, "T": {"type": "DT_FLOAT"}, "shrink_axis_mask": {"i": "4"}}}, {"name": "StatefulPartitionedCall/autoencoder/StatefulPartitionedCall/processor_group/frame/Reshape", "op": "Reshape", "input": ["StatefulPartitionedCall/autoencoder/StatefulPartitionedCall/processor_group/frame/StridedSlice", "StatefulPartitionedCall/autoencoder/StatefulPartitionedCall/processor_group/frame/concat_2"], "attr": {"T": {"type": "DT_FLOAT"}, "Tshape": {"type": "DT_INT32"}}}, {"name": "StatefulPartitionedCall/autoencoder/StatefulPartitionedCall/truediv_3", "op": "Mul", "input": ["StatefulPartitionedCall/autoencoder/StatefulPartitionedCall/strided_slice_3", "ConstantFolding/StatefulPartitionedCall/autoencoder/StatefulPartitionedCall/truediv_3_recip"], "attr": {"T": {"type": "DT_FLOAT"}}}, {"name": "StatefulPartitionedCall/autoencoder/StatefulPartitionedCall/processor_group/mul_2", "op": "Mul", "input": ["StatefulPartitionedCall/autoencoder/StatefulPartitionedCall/strided_slice_7", "StatefulPartitionedCall/autoencoder/StatefulPartitionedCall/processor_group/strided_slice"], "attr": {"T": {"type": "DT_FLOAT"}}}, {"name": "StatefulPartitionedCall/autoencoder/StatefulPartitionedCall/LessEqual", "op": "LessEqual", "input": ["StatefulPartitionedCall/autoencoder/StatefulPartitionedCall/strided_slice_7", "StatefulPartitionedCall/autoencoder/StatefulPartitionedCall/LessEqual/y"], "attr": {"T": {"type": "DT_FLOAT"}}}, {"name": "StatefulPartitionedCall/autoencoder/StatefulPartitionedCall/Log", "op": "Log", "input": ["StatefulPartitionedCall/autoencoder/StatefulPartitionedCall/strided_slice_7"], "attr": {"T": {"type": "DT_FLOAT"}}}, {"name": "StatefulPartitionedCall/autoencoder/StatefulPartitionedCall/processor_group/mul_3", "op": "Mul", "input": ["StatefulPartitionedCall/autoencoder/StatefulPartitionedCall/strided_slice_7", "StatefulPartitionedCall/autoencoder/StatefulPartitionedCall/processor_group/strided_slice_1"], "attr": {"T": {"type": "DT_FLOAT"}}}, {"name": "StatefulPartitionedCall/autoencoder/StatefulPartitionedCall/processor_group/frame/GatherV2", "op": "GatherV2", "input": ["StatefulPartitionedCall/autoencoder/StatefulPartitionedCall/processor_group/frame/Reshape", "StatefulPartitionedCall/autoencoder/StatefulPartitionedCall/processor_group/frame/add_1", "StatefulPartitionedCall/autoencoder/StatefulPartitionedCall/processor_group/frame/GatherV2/axis"], "attr": {"Tindices": {"type": "DT_INT32"}, "Tparams": {"type": "DT_FLOAT"}, "batch_dims": {"i": "0"}, "Taxis": {"type": "DT_INT32"}}}, {"name": "StatefulPartitionedCall/autoencoder/StatefulPartitionedCall/add_1", "op": "AddV2", "input": ["StatefulPartitionedCall/autoencoder/StatefulPartitionedCall/truediv_3", "StatefulPartitionedCall/autoencoder/StatefulPartitionedCall/add_1/y"], "attr": {"T": {"type": "DT_FLOAT"}}}, {"name": "StatefulPartitionedCall/autoencoder/StatefulPartitionedCall/processor_group/GreaterEqual", "op": "GreaterEqual", "input": ["StatefulPartitionedCall/autoencoder/StatefulPartitionedCall/processor_group/mul_2", "StatefulPartitionedCall/autoencoder/StatefulPartitionedCall/processor_group/GreaterEqual/y"], "attr": {"T": {"type": "DT_FLOAT"}}}, {"name": "StatefulPartitionedCall/autoencoder/StatefulPartitionedCall/truediv", "op": "Mul", "input": ["StatefulPartitionedCall/autoencoder/StatefulPartitionedCall/Log", "ConstantFolding/StatefulPartitionedCall/autoencoder/StatefulPartitionedCall/truediv_recip"], "attr": {"T": {"type": "DT_FLOAT"}}}, {"nam…
e_10/stack", "shape": [2], "dtype": "int32"}, {"name": "StatefulPartitionedCall/autoencoder/StatefulPartitionedCall/processor_group/strided_slice_10/stack_1", "shape": [2], "dtype": "int32"}, {"name": "StatefulPartitionedCall/autoencoder/StatefulPartitionedCall/processor_group/strided_slice_10/stack_2", "shape": [2], "dtype": "int32"}, {"name": "StatefulPartitionedCall/autoencoder/StatefulPartitionedCall/processor_group/GreaterEqual_1/y", "shape": [], "dtype": "float32"}, {"name": "StatefulPartitionedCall/autoencoder/StatefulPartitionedCall/processor_group/zeros_like_1/shape_as_tensor", "shape": [3], "dtype": "int32"}, {"name": "StatefulPartitionedCall/autoencoder/StatefulPartitionedCall/processor_group/zeros_like_1/Const", "shape": [], "dtype": "float32"}, {"name": "StatefulPartitionedCall/autoencoder/StatefulPartitionedCall/processor_group/mul/x", "shape": [], "dtype": "float32"}, {"name": "StatefulPartitionedCall/autoencoder/StatefulPartitionedCall/processor_group/Log", "shape": [], "dtype": "float32"}, {"name": "StatefulPartitionedCall/autoencoder/StatefulPartitionedCall/processor_group/add/y", "shape": [], "dtype": "float32"}, {"name": "StatefulPartitionedCall/autoencoder/StatefulPartitionedCall/processor_group/strided_slice", "shape": [1, 1, 60], "dtype": "float32"}, {"name": "StatefulPartitionedCall/autoencoder/StatefulPartitionedCall/processor_group/GreaterEqual/y", "shape": [], "dtype": "float32"}, {"name": "StatefulPartitionedCall/autoencoder/StatefulPartitionedCall/processor_group/zeros_like/shape_as_tensor", "shape": [3], "dtype": "int32"}, {"name": "StatefulPartitionedCall/autoencoder/StatefulPartitionedCall/processor_group/zeros_like/Const", "shape": [], "dtype": "float32"}, {"name": "StatefulPartitionedCall/autoencoder/StatefulPartitionedCall/processor_group/mul_1/x", "shape": [], "dtype": "float32"}, {"name": "Func/StatefulPartitionedCall/autoencoder/StatefulPartitionedCall/input/_140", "shape": [1, 1, 1, 128], "dtype": "float32"}, {"name": "Func/StatefulPartitionedCall/autoencoder/StatefulPartitionedCall/input/_136", "shape": [1, 1, 1, 128], "dtype": "float32"}, {"name": "Func/StatefulPartitionedCall/autoencoder/StatefulPartitionedCall/input/_132", "shape": [1, 1, 1, 128], "dtype": "float32"}, {"name": "Func/StatefulPartitionedCall/autoencoder/StatefulPartitionedCall/input/_128", "shape": [1, 1, 1, 128], "dtype": "float32"}, {"name": "Func/StatefulPartitionedCall/autoencoder/StatefulPartitionedCall/input/_124", "shape": [1, 1, 1, 128], "dtype": "float32"}, {"name": "Func/StatefulPartitionedCall/autoencoder/StatefulPartitionedCall/input/_120", "shape": [1, 1, 1, 128], "dtype": "float32"}, {"name": "Func/StatefulPartitionedCall/autoencoder/StatefulPartitionedCall/input/_116", "shape": [1, 1, 1, 128], "dtype": "float32"}, {"name": "Func/StatefulPartitionedCall/autoencoder/StatefulPartitionedCall/input/_112", "shape": [1, 1, 1, 128], "dtype": "float32"}, {"name": "Func/StatefulPartitionedCall/autoencoder/StatefulPartitionedCall/input/_108", "shape": [1, 1, 1, 128], "dtype": "float32"}, {"name": "Func/StatefulPartitionedCall/autoencoder/StatefulPartitionedCall/input/_104", "shape": [1, 1, 1, 128], "dtype": "float32"}, {"name": "Func/StatefulPartitionedCall/autoencoder/StatefulPartitionedCall/input/_100", "shape": [1, 1, 1, 128], "dtype": "float32"}, {"name": "Func/StatefulPartitionedCall/autoencoder/StatefulPartitionedCall/input/_96", "shape": [1, 1, 1, 128], "dtype": "float32"}, {"name": "Func/StatefulPartitionedCall/autoencoder/StatefulPartitionedCall/input/_92", "shape": [1, 1, 1, 128], "dtype": "float32"}, {"name": "Func/StatefulPartitionedCall/autoencoder/StatefulPartitionedCall/input/_88", "shape": [1, 1, 1, 128], "dtype": "float32"}, {"name": "Func/StatefulPartitionedCall/autoencoder/StatefulPartitionedCall/input/_84", "shape": [1, 1, 1, 128], "dtype": "float32"}, {"name": "Func/StatefulPartitionedCall/autoencoder/StatefulPartitionedCall/input/_80", "shape": [1, 1, 1, 128], "dtype": "float32"}, {"name": "StatefulPartitionedCall/autoencoder/StatefulPartitionedCall/strided_slice/stack", "shape": [2], "dtype": "int32"}, {"name": "StatefulPartitionedCall/autoencoder/StatefulPartitionedCall/strided_slice/stack_1", "shape": [2], "dtype": "int32"}, {"name": "StatefulPartitionedCall/autoencoder/StatefulPartitionedCall/strided_slice/stack_2", "shape": [2], "dtype": "int32"}, {"name": "StatefulPartitionedCall/autoencoder/StatefulPartitionedCall/strided_slice_1/stack", "shape": [3], "dtype": "int32"}, {"name": "StatefulPartitionedCall/autoencoder/StatefulPartitionedCall/strided_slice_1/stack_1", "shape": [3], "dtype": "int32"}, {"name": "StatefulPartitionedCall/autoencoder/StatefulPartitionedCall/strided_slice_1/stack_2", "shape": [3], "dtype": "int32"}, {"name": "StatefulPartitionedCall/autoencoder/StatefulPartitionedCall/strided_slice_2/stack", "shape": [4], "dtype": "int32"}, {"name": "StatefulPartitionedCall/autoencoder/StatefulPartitionedCall/strided_slice_2/stack_1", "shape": [4], "dtype": "int32"}, {"name": "StatefulPartitionedCall/autoencoder/StatefulPartitionedCall/strided_slice_2/stack_2", "shape": [4], "dtype": "int32"}, {"name": "StatefulPartitionedCall/autoencoder/StatefulPartitionedCall/resize/size", "shape": [2], "dtype": "int32"}, {"name": "StatefulPartitionedCall/autoencoder/StatefulPartitionedCall/strided_slice_3/stack", "shape": [4], "dtype": "int32"}, {"name": "StatefulPartitionedCall/autoencoder/StatefulPartitionedCall/strided_slice_3/stack_1", "shape": [4], "dtype": "int32"}, {"name": "StatefulPartitionedCall/autoencoder/StatefulPartitionedCall/strided_slice_3/stack_2", "shape": [4], "dtype": "int32"}, {"name": "ConstantFolding/StatefulPartitionedCall/autoencoder/StatefulPartitionedCall/truediv_3_recip", "shape": [], "dtype": "float32"}, {"name": "StatefulPartitionedCall/autoencoder/StatefulPartitionedCall/add_1/y", "shape": [], "dtype": "float32"}, {"name": "StatefulPartitionedCall/autoencoder/StatefulPartitionedCall/LessEqual/y", "shape": [], "dtype": "float32"}, {"name": "StatefulPartitionedCall/autoencoder/StatefulPartitionedCall/SelectV2/t", "shape": [], "dtype": "float32"}, {"name": "StatefulPartitionedCall/autoencoder/StatefulPartitionedCall/mul/x", "shape": [], "dtype": "float32"}, {"name": "ConstantFolding/StatefulPartitionedCall/autoencoder/StatefulPartitionedCall/truediv_recip", "shape": [], "dtype": "float32"}, {"name": "StatefulPartitionedCall/autoencoder/StatefulPartitionedCall/truediv_1", "shape": [], "dtype": "float32"}, {"name": "StatefulPartitionedCall/autoencoder/StatefulPartitionedCall/add/y", "shape": [], "dtype": "float32"}, {"name": "ConstantFolding/StatefulPartitionedCall/autoencoder/StatefulPartitionedCall/truediv_2_recip", "shape": [], "dtype": "float32"}, {"name": "StatefulPartitionedCall/autoencoder/StatefulPartitionedCall/dilated_conv_decoder/concat/axis", "shape": [], "dtype": "int32"}, {"name": "StatefulPartitionedCall/autoencoder/StatefulPartitionedCall/dilated_conv_decoder/dilated_conv_stack/strided_slice/stack", "shape": [4], "dtype": "int32"}, {"name": "StatefulPartitionedCall/autoencoder/StatefulPartitionedCall/dilated_conv_decoder/dilated_conv_stack/strided_slice/stack_1", "shape": [4], "dtype": "int32"}, {"name": "StatefulPartitionedCall/autoencoder/StatefulPartitionedCall/dilated_conv_decoder/dilated_conv_stack/strided_slice/stack_2", "shape": [4], "dtype": "int32"}, {"name": "Func/StatefulPartitionedCall/autoencoder/StatefulPartitionedCall/input/_75", "shape": [3, 1, 2, 128], "dtype": "float32"}, {"name": "Func/StatefulPartitionedCall/autoencoder/StatefulPartitionedCall/input/_76", "shape": [128], "dtype": "float32"}, {"name": "Func/StatefulPartitionedCall/autoencoder/StatefulPartitionedCall/input/_77", "shape": [3, 1, 128, 128], "dtype": "float32"}, {"name": "Func/StatefulPartitionedCall/autoencoder/StatefulPartitionedCall/input/_78", "shape": [128], "dtype": "float32"}, {"name": "StatefulPartitionedCall/autoencoder/StatefulPartitionedCall/dilated_conv_decoder/dilated_conv_stack/normalize/Reshape/shape", "shape": [5], "dtype": "int32"}, {"name": "StatefulPartitionedCall/autoencoder/StatefulPartitionedCall/dilated_conv_decoder/dilated_conv_stack/normalize/moments/mean/reduction_indices", "shape": [3], "dtype": "int32"}, {"name": "StatefulPartitionedCall/autoencoder/StatefulPartitionedCall/dilated_conv_decoder/dilated_conv_stack/normalize/moments/variance/reduction_indices", "shape": [3], "dtype": "int32"}, {"name": "StatefulPartitionedCall/autoencoder/StatefulPartitionedCall/dilated_conv_decoder/dilated_conv_stack/normalize/add/y", "shape": [], "dtype": "float32"}, {"name": "StatefulPartitionedCall/autoencoder/StatefulPartitionedCall/dilated_conv_decoder/dilated_conv_stack/normalize/Reshape_1/shape", "shape": [4], "dtype": "int32"}, {"name": "Func/StatefulPartitionedCall/autoencoder/StatefulPartitionedCall/input/_79", "shape": [1, 1, 1, 128], "dtype": "float32"}, {"name": "StatefulPartitionedCall/autoencoder/StatefulPartitionedCall/dilated_conv_decoder/dilated_conv_stack/dilated_conv/conv2d_2/Conv2D/SpaceToBatchND/block_shape", "shape": [2], "dtype": "int32"}, {"name": "StatefulPartitionedCall/autoencoder/StatefulPartitionedCall/dilated_conv_decoder/dilated_conv_stack/dilated_conv/conv2d_2/Conv2D/SpaceToBatchND/paddings", "shape": [2, 2], "dtype": "int32"}, {"name": "Func/StatefulPartitionedCall/autoencoder/StatefulPartitionedCall/input/_81", "shape": [3, 1, 128, 128], "dtype": "float32"}, {"name": "StatefulPartitionedCall/autoencoder/StatefulPartitionedCall/dilated_conv_decoder/dilated_conv_stack/dilated_conv/conv2d_2/Conv2D/BatchToSpaceND/block_shape", "shape": [2], "dtype": "int32"}, {"name": "StatefulPartitionedCall/autoencoder/StatefulPartitionedCall/dilated_conv_decoder/dilated_conv_stack/dilated_conv/conv2d_2/Conv2D/BatchToSpaceND/crops", "shape": [2, 2], "dtype": "int32"}, {"name": "Func/StatefulPartitionedCall/autoencoder/StatefulPartitionedCall/input/_82", "shape": [128], "dtype": "float32"}, {"name": "StatefulPartitionedCall/autoencoder/StatefulPartitionedCall/dilated_conv_decoder/dilated_conv_stack/normalize_1/Reshape/shape", "shape": [5], "dtype": "int32"}, {"name": "StatefulPartitionedCall/autoencoder/StatefulPartitionedCall/dilated_conv_decoder/dilated_conv_stack/normalize_1/moments/mean/reduction_indices", "shape": [3], "dtype": "int32"}, {"name": "StatefulPartitionedCall/autoencoder/StatefulPartitionedCall/dilated_conv_decoder/dilated_conv_stack/normalize_1/moments/variance/reduction_indices", "shape": [3], "dtype": "int32"}, {"name": "StatefulPartitionedCall/autoencoder/StatefulPartitionedCall/dilated_conv_decoder/dilated_conv_stack/normalize_1/add/y", "shape": [], "dtype": "float32"}, {"name": "StatefulPartitionedCall/autoencoder/StatefulPartitionedCall/dilated_conv_decoder/dilated_conv_stack/normalize_1/Reshape_1/shape", "shape": [4], "dtype": "int32"}, {"name": "Func/StatefulPartitionedCall/autoencoder/StatefulPartitionedCall/input/_83", "shape": [1, 1, 1, 128], "dtype": "float32"}, {"name": "StatefulPartitionedCall/autoencoder/StatefulPartitionedCall/dilated_conv_decoder/dilated_conv_stack/dilated_conv/conv2d_3/Conv2D/SpaceToBatchND/block_shape", "shape": [2], "dtype": "int32"}, {"name": "StatefulPartitionedCall/autoencoder/StatefulPartitionedCall/dilated_conv_decoder/dilated_conv_stack/dilated_conv/conv2d_3/Conv2D/SpaceToBatchND/paddings", "shape": [2, 2], "dtype": "int32"}, {"name": "Func/StatefulPartitionedCall/autoencoder/StatefulPartitionedCall/input/_85", "shape": [3, 1, 128, 128], "dtype": "float32"}, {"name": "StatefulPartitionedCall/autoencoder/StatefulPartitionedCall/dilated_conv_decoder/dilated_conv_stack/dilated_conv/conv2d_3/Conv2D/BatchToSpaceND/block_shape", "shape": [2], "dtype": "int32"}, {"name": "StatefulPartitionedCall/autoencoder/StatefulPartitionedCall/dilated_conv_decoder/dilated_conv_stack/dilated_conv/conv2d_3/Conv2D/BatchToSpaceND/crops", "shape": [2, 2], "dtype": "int32"}, {"name": "Func/StatefulPartitionedCall/autoencoder/StatefulPartitionedCall/input/_86", "shape": [128], "dtype": "float32"}, {"name": "StatefulPartitionedCall/autoencoder/StatefulPartitionedCall/dilated_conv_decoder/dilated_conv_stack/normalize_2/Reshape/shape", "shape": [5], "dtype": "int32"}, {"name": "StatefulPartitionedCall/autoencoder/StatefulPartitionedCall/dilated_conv_decoder/dilated_conv_stack/normalize_2/moments/mean/reduction_indices", "shape": [3], "dtype": "int32"}, {"name": "StatefulPartitionedCall/autoencoder/StatefulPartitionedCall/dilated_conv_decoder/dilated_conv_stack/normalize_2/moments/variance/reduction_indices", "shape": [3], "dtype": "int32"}, {"name": "StatefulPartitionedCall/autoencoder/StatefulPartitionedCall/dilated_conv_decoder/dilated_conv_stack/normalize_2/add/y", "shape": [], "dtype": "float32"}, {"name": "StatefulPartitionedCall/autoencoder/StatefulPartitionedCall/dilated_conv_decoder/dilated_conv_stack/normalize_2/Reshape_1/shape", "shape": [4], "dtype": "int32"}, {"name": "Func/StatefulPartitionedCall/autoencoder/StatefulPartitionedCall/input/_87", "shape": [1, 1, 1, 128], "dtype": "float32"}, {"name": "StatefulPartitionedCall/autoencoder/StatefulPartitionedCall/dilated_conv_decoder/dilated_conv_stack/dilated_conv/conv2d_4/Conv2D/SpaceToBatchND/block_shape", "shape": [2], "dtype": "int32"}, {"name": "StatefulPartitionedCall/autoencoder/StatefulPartitionedCall/dilated_conv_decoder/dilated_conv_stack/dilated_conv/conv2d_4/Conv2D/SpaceToBatchND/paddings", "shape": [2, 2], "dtype": "int32"}, {"name": "Func/StatefulPartitionedCall/autoencoder/StatefulPartitionedCall/input/_89", "shape": [3, 1, 128, 128], "dtype": "float32"}, {"name": "StatefulPartitionedCall/autoencoder/StatefulPartitionedCall/dilated_conv_decoder/dilated_conv_stack/dilated_conv/conv2d_4/Conv2D/BatchToSpaceND/block_shape", "shape": [2], "dtype": "int32"}, {"name": "StatefulPartitionedCall/autoencoder/StatefulPartitionedCall/dilated_conv_decoder/dilated_conv_stack/dilated_conv/conv2d_4/Conv2D/BatchToSpaceND/crops", "shape": [2, 2], "dtype": "int32"}, {"name": "Func/StatefulPartitionedCall/autoencoder/StatefulPartitionedCall/input/_90", "shape": [128], "dtype": "float32"}, {"name": "StatefulPartitionedCall/autoencoder/StatefulPartitionedCall/dilated_conv_decoder/dilated_conv_stack/normalize_3/Reshape/shape", "shape": [5], "dtype": "int32"}, {"name": "StatefulPartitionedCall/autoencoder/StatefulPartitionedCall/dilated_conv_decoder/dilated_conv_stack/normalize_3/moments/mean/reduction_indices", "shape": [3], "dtype": "int32"}, {"name": "StatefulPartitionedCall/autoencoder/StatefulPartitionedCall/dilated_conv_decoder/dilated_conv_stack/normalize_3/moments/variance/reduction_indices", "shape": [3], "dtype": "int32"}, {"name": "StatefulPartitionedCall/autoencoder/StatefulPartitionedCall/dilated_conv_decoder/dilated_conv_stack/normalize_3/add/y", "shape": [], "dtype": "float32"}, {"name": "StatefulPartitionedCall/autoencoder/StatefulPartitionedCall/dilated_conv_decoder/dilated_conv_stack/normalize_3/Reshape_1/shape", "shape": [4], "dtype": "int32"}, {"name": "Func/StatefulPartitionedCall/autoencoder/StatefulPartitionedCall/input/_91", "shape": [1, 1, 1, 128], "dtype": "float32"}, {"name": "StatefulPartitionedCall/autoencoder/StatefulPartitionedCall/dilated_conv_decoder/dilated_conv_stack/dilated_conv/conv2d_5/Conv2D/SpaceToBatchND/block_shape", "shape": [2], "dtype": "int32"}, {"name": "StatefulPartitionedCall/autoencoder/StatefulPartitionedCall/dilated_conv_decoder/dilated_conv_stack/dilated_conv/conv2d_5/Conv2D/SpaceToBatchND/paddings", "shape": [2, 2], "dtype": "int32"}, {"name": "Func/StatefulPartitionedCall/autoencoder/StatefulPartitionedCall/input/_93", "shape": [3, 1, 128, 128], "dtype": "float32"}, {"name": "StatefulPartitionedCall/autoencoder/StatefulPartitionedCall/dilated_conv_decoder/dilated_conv_stack/dilated_conv/conv2d_5/Conv2D/BatchToSpaceND/block_shape", "shape": [2], "dtype": "int32"}, {"name": "StatefulPartitionedCall/autoencoder/StatefulPartitionedCall/dilated_conv_decoder/dilated_conv_stack/dilated_conv/conv2d_5/Conv2D/BatchToSpaceND/crops", "shape": [2, 2], "dtype": "int32"}, {"name": "Func/StatefulPartitionedCall/autoencoder/StatefulPartitionedCall/input/_94", "shape": [128], "dtype": "float32"}, {"name": "StatefulPartitionedCall/autoencoder/StatefulPartitionedCall/dilated_conv_decoder/dilated_conv_stack/normalize_4/Reshape/shape", "shape": [5], "dtype": "int32"}, {"name": "StatefulPartitionedCall/autoencoder/StatefulPartitionedCall/dilated_conv_decoder/dilated_conv_stack/normalize_4/moments/mean/reduction_indices", "shape": [3], "dtype": "int32"}, {"name": "StatefulPartitionedCall/autoencoder/StatefulPartitionedCall/dilated_conv_decoder/dilated_conv_stack/normalize_4/moments/variance/reduction_indices", "shape": [3], "dtype": "int32"}, {"name": "StatefulPartitionedCall/autoencoder/StatefulPartitionedCall/dilated_conv_decoder/dilated_conv_stack/normalize_4/add/y", "shape": [], "dtype": "float32"}, {"name": "StatefulPartitionedCall/autoencoder/StatefulPartitionedCall/dilated_conv_decoder/dilated_conv_stack/normalize_4/Reshape_1/shape", "shape": [4], "dtype": "int32"}, {"name": "Func/StatefulPartitionedCall/autoencoder/StatefulPartitionedCall/input/_95", "shape": [1, 1, 1, 128], "dtype": "float32"}, {"name": "StatefulPartitionedCall/autoencoder/StatefulPartitionedCall/dilated_conv_decoder/dilated_conv_stack/dilated_conv/conv2d_6/Conv2D/SpaceToBatchND/block_shape", "shape": [2], "dtype": "int32"}, {"name": "StatefulPartitionedCall/autoencoder/StatefulPartitionedCall/dilated_conv_decoder/dilated_conv_stack/dilated_conv/conv2d_6/Conv2D/SpaceToBatchND/paddings", "shape": [2, 2], "dtype": "int32"}, {"name": "Func/StatefulPartitionedCall/autoencoder/StatefulPartitionedCall/input/_97", "shape": [3, 1, 128, 128], "dtype": "float32"}, {"name": "StatefulPartitionedCall/autoencoder/StatefulPartitionedCall/dilated_conv_decoder/dilated_conv_stack/dilated_conv/conv2d_6/Conv2D/BatchToSpaceND/block_shape", "shape": [2], "dtype": "int32"}, {"name": "StatefulPartitionedCall/autoencoder/StatefulPartitionedCall/dilated_conv_decoder/dilated_conv_stack/dilated_conv/conv2d_6/Conv2D/BatchToSpaceND/crops", "shape": [2, 2], "dtype": "int32"}, {"name": "Func/StatefulPartitionedCall/autoencoder/StatefulPartitionedCall/input/_98", "shape": [128], "dtype": "float32"}, {"name": "StatefulPartitionedCall/autoencoder/StatefulPartitionedCall/dilated_conv_decoder/dilated_conv_stack/normalize_5/Reshape/shape", "shape": [5], "dtype": "int32"}, {"name": "StatefulPartitionedCall/autoencoder/StatefulPartitionedCall/dilated_conv_decoder/dilated_conv_stack/normalize_5/moments/mean/reduction_indices", "shape": [3], "dtype": "int32"}, {"name": "StatefulPartitionedCall/autoencoder/StatefulPartitionedCall/dilated_conv_decoder/dilated_conv_stack/normalize_5/moments/variance/reduction_indices", "shape": [3], "dtype": "int32"}, {"name": "StatefulPartitionedCall/autoencoder/StatefulPartitionedCall/dilated_conv_decoder/dilated_conv_stack/normalize_5/add/y", "shape": [], "dtype": "float32"}, {"name": "StatefulPartitionedCall/autoencoder/StatefulPartitionedCall/dilated_conv_decoder/dilated_conv_stack/normalize_5/Reshape_1/shape", "shape": [4], "dtype": "int32"}, {"name": "Func/StatefulPartitionedCall/autoencoder/StatefulPartitionedCall/input/_99", "shape": [1, 1, 1, 128], "dtype": "float32"}, {"name": "StatefulPartitionedCall/autoencoder/StatefulPartitionedCall/dilated_conv_decoder/dilated_conv_stack/dilated_conv/conv2d_7/Conv2D/SpaceToBatchND/block_shape", "shape": [2], "dtype": "int32"}, {"name": "StatefulPartitionedCall/autoencoder/StatefulPartitionedCall/dilated_conv_decoder/dilated_conv_stack/dilated_conv/conv2d_7/Conv2D/SpaceToBatchND/paddings", "shape": [2, 2], "dtype": "int32"}, {"name": "Func/StatefulPartitionedCall/autoencoder/StatefulPartitionedCall/input/_101", "shape": [3, 1, 128, 128], "dtype": "float32"}, {"name": "StatefulPartitionedCall/autoencoder/StatefulPartitionedCall/dilated_conv_decoder/dilated_conv_stack/dilated_conv/conv2d_7/Conv2D/BatchToSpaceND/block_shape", "shape": [2], "dtype": "int32"}, {"name": "StatefulPartitionedCall/autoencoder/StatefulPartitionedCall/dilated_conv_decoder/dilated_conv_stack/dilated_conv/conv2d_7/Conv2D/BatchToSpaceND/crops", "shape": [2, 2], "dtype": "int32"}, {"name": "Func/StatefulPartitionedCall/autoencoder/StatefulPartitionedCall/input/_102", "shape": [128], "dtype": "float32"}, {"name": "StatefulPartitionedCall/autoencoder/StatefulPartitionedCall/dilated_conv_decoder/dilated_conv_stack/normalize_6/Reshape/shape", "shape": [5], "dtype": "int32"}, {"name": "StatefulPartitionedCall/autoencoder/StatefulPartitionedCall/dilated_conv_decoder/dilated_conv_stack/normalize_6/moments/mean/reduction_indices", "shape": [3], "dtype": "int32"}, {"name": "StatefulPartitionedCall/autoencoder/StatefulPartitionedCall/dilated_conv_decoder/dilated_conv_stack/normalize_6/moments/variance/reduction_indices", "shape": [3], "dtype": "int32"}, {"name": "StatefulPartitionedCall/autoencoder/StatefulPartitionedCall/dilated_conv_decoder/dilated_conv_stack/normalize_6/add/y", "shape": [], "dtype": "float32"}, {"name": "StatefulPartitionedCall/autoencoder/StatefulPartitionedCall/dilated_conv_decoder/dilated_conv_stack/normalize_6/Reshape_1/shape", "shape": [4], "dtype": "int32"}, {"name": "Func/StatefulPartitionedCall/autoencoder/StatefulPartitionedCall/input/_103", "shape": [1, 1, 1, 128], "dtype": "float32"}, {"name": "StatefulPartitionedCall/autoencoder/StatefulPartitionedCall/dilated_conv_decoder/dilated_conv_stack/dilated_conv/conv2d_8/Conv2D/SpaceToBatchND/block_shape", "shape": [2], "dtype": "int32"}, {"name": "StatefulPartitionedCall/autoencoder/StatefulPartitionedCall/dilated_conv_decoder/dilated_conv_stack/dilated_conv/conv2d_8/Conv2D/SpaceToBatchND/paddings", "shape": [2, 2], "dtype": "int32"}, {"name": "Func/StatefulPartitionedCall/autoencoder/StatefulPartitionedCall/input/_105", "shape": [3, 1, 128, 128], "dtype": "float32"}, {"name": "StatefulPartitionedCall/autoencoder/StatefulPartitionedCall/dilated_conv_decoder/dilated_conv_stack/dilated_conv/conv2d_8/Conv2D/BatchToSpaceND/block_shape", "shape": [2], "dtype": "int32"}, {"name": "StatefulPartitionedCall/autoencoder/StatefulPartitionedCall/dilated_conv_decoder/dilated_conv_stack/dilated_conv/conv2d_8/Conv2D/BatchToSpaceND/crops", "shape": [2, 2], "dtype": "int32"}, {"name": "Func/StatefulPartitionedCall/autoencoder/StatefulPartitionedCall/input/_106", "shape": [128], "dtype": "float32"}, {"name": "StatefulPartitionedCall/autoencoder/StatefulPartitionedCall/dilated_conv_decoder/dilated_conv_stack/normalize_7/Reshape/shape", "shape": [5], "dtype": "int32"}, {"name": "StatefulPartitionedCall/autoencoder/StatefulPartitionedCall/dilated_conv_decoder/dilated_conv_stack/normalize_7/moments/mean/reduction_indices", "shape": [3], "dtype": "int32"}, {"name": "StatefulPartitionedCall/autoencoder/StatefulPartitionedCall/dilated_conv_decoder/dilated_conv_stack/normalize_7/moments/variance/reduction_indices", "shape": [3], "dtype": "int32"}, {"name": "StatefulPartitionedCall/autoencoder/StatefulPartitionedCall/dilated_conv_decoder/dilated_conv_stack/normalize_7/add/y", "shape": [], "dtype": "float32"}, {"name": "StatefulPartitionedCall/autoencoder/StatefulPartitionedCall/dilated_conv_decoder/dilated_conv_stack/normalize_7/Reshape_1/shape", "shape": [4], "dtype": "int32"}, {"name": "Func/StatefulPartitionedCall/autoencoder/StatefulPartitionedCall/input/_107", "shape": [1, 1, 1, 128], "dtype": "float32"}, {"name": "Func/StatefulPartitionedCall/autoencoder/StatefulPartitionedCall/input/_109", "shape": [3, 1, 128, 128], "dtype": "float32"}, {"name": "Func/StatefulPartitionedCall/autoencoder/StatefulPartitionedCall/input/_110", "shape": [128], "dtype": "float32"}, {"name": "StatefulPartitionedCall/autoencoder/StatefulPartitionedCall/dilated_conv_decoder/dilated_conv_stack/normalize_8/Reshape/shape", "shape": [5], "dtype": "int32"}, {"name": "StatefulPartitionedCall/autoencoder/StatefulPartitionedCall/dilated_conv_decoder/dilated_conv_stack/normalize_8/moments/mean/reduction_indices", "shape": [3], "dtype": "int32"}, {"name": "StatefulPartitionedCall/autoencoder/StatefulPartitionedCall/dilated_conv_decoder/dilated_conv_stack/normalize_8/moments/variance/reduction_indices", "shape": [3], "dtype": "int32"}, {"name": "StatefulPartitionedCall/autoencoder/StatefulPartitionedCall/dilated_conv_decoder/dilated_conv_stack/normalize_8/add/y", "shape": [], "dtype": "float32"}, {"name": "StatefulPartitionedCall/autoencoder/StatefulPartitionedCall/dilated_conv_decoder/dilated_conv_stack/normalize_8/Reshape_1/shape", "shape": [4], "dtype": "int32"}, {"name": "Func/StatefulPartitionedCall/autoencoder/StatefulPartitionedCall/input/_111", "shape": [1, 1, 1, 128], "dtype": "float32"}, {"name": "StatefulPartitionedCall/autoencoder/StatefulPartitionedCall/dilated_conv_decoder/dilated_conv_stack/dilated_conv/conv2d_10/Conv2D/SpaceToBatchND/block_shape", "shape": [2], "dtype": "int32"}, {"name": "StatefulPartitionedCall/autoencoder/StatefulPartitionedCall/dilated_conv_decoder/dilated_conv_stack/dilated_conv/conv2d_10/Conv2D/SpaceToBatchND/paddings", "shape": [2, 2], "dtype": "int32"}, {"name": "Func/StatefulPartitionedCall/autoencoder/StatefulPartitionedCall/input/_113", "shape": [3, 1, 128, 128], "dtype": "float32"}, {"name": "StatefulPartitionedCall/autoencoder/StatefulPartitionedCall/dilated_conv_decoder/dilated_conv_stack/dilated_conv/conv2d_10/Conv2D/BatchToSpaceND/block_shape", "shape": [2], "dtype": "int32"}, {"name": "StatefulPartitionedCall/autoencoder/StatefulPartitionedCall/dilated_conv_decoder/dilated_conv_stack/dilated_conv/conv2d_10/Conv2D/BatchToSpaceND/crops", "shape": [2, 2], "dtype": "int32"}, {"name": "Func/StatefulPartitionedCall/autoencoder/StatefulPartitionedCall/input/_114", "shape": [128], "dtype": "float32"}, {"name": "StatefulPartitionedCall/autoencoder/StatefulPartitionedCall/dilated_conv_decoder/dilated_conv_stack/normalize_9/Reshape/shape", "shape": [5], "dtype": "int32"}, {"name": "StatefulPartitionedCall/autoencoder/StatefulPartitionedCall/dilated_conv_decoder/dilated_conv_stack/normalize_9/moments/mean/reduction_indices", "shape": [3], "dtype": "int32"}, {"name": "StatefulPartitionedCall/autoencoder/StatefulPartitionedCall/dilated_conv_decoder/dilated_conv_stack/normalize_9/moments/variance/reduction_indices", "shape": [3], "dtype": "int32"}, {"name": "StatefulPartitionedCall/autoencoder/StatefulPartitionedCall/dilated_conv_decoder/dilated_conv_stack/normalize_9/add/y", "shape": [], "dtype": "float32"}, {"name": "StatefulPartitionedCall/autoencoder/StatefulPartitionedCall/dilated_conv_decoder/dilated_conv_stack/normalize_9/Reshape_1/shape", "shape": [4], "dtype": "int32"}, {"name": "Func/StatefulPartitionedCall/autoencoder/StatefulPartitionedCall/input/_115", "shape": [1, 1, 1, 128], "dtype": "float32"}, {"name": "StatefulPartitionedCall/autoencoder/StatefulPartitionedCall/dilated_conv_decoder/dilated_conv_stack/dilated_conv/conv2d_11/Conv2D/SpaceToBatchND/block_shape", "shape": [2], "dtype": "int32"}, {"name": "StatefulPartitionedCall/autoencoder/StatefulPartitionedCall/dilated_conv_decoder/dilated_conv_stack/dilated_conv/conv2d_11/Conv2D/SpaceToBatchND/paddings", "shape": [2, 2], "dtype": "int32"}, {"name": "Func/StatefulPartitionedCall/autoencoder/StatefulPartitionedCall/input/_117", "shape": [3, 1, 128, 128], "dtype": "float32"}, {"name": "StatefulPartitionedCall/autoencoder/StatefulPartitionedCall/dilated_conv_decoder/dilated_conv_stack/dilated_conv/conv2d_11/Conv2D/BatchToSpaceND/block_shape", "shape": [2], "dtype": "int32"}, {"name": "StatefulPartitionedCall/autoencoder/StatefulPartitionedCall/dilated_conv_decoder/dilated_conv_stack/dilated_conv/conv2d_11/Conv2D/BatchToSpaceND/crops", "shape": [2, 2], "dtype": "int32"}, {"name": "Func/StatefulPartitionedCall/autoencoder/StatefulPartitionedCall/input/_118", "shape": [128], "dtype": "float32"}, {"name": "StatefulPartitionedCall/autoencoder/StatefulPartitionedCall/dilated_conv_decoder/dilated_conv_stack/normalize_10/Reshape/shape", "shape": [5], "dtype": "int32"}, {"name": "StatefulPartitionedCall/autoencoder/StatefulPartitionedCall/dilated_conv_decoder/dilated_conv_stack/normalize_10/moments/mean/reduction_indices", "shape": [3], "dtype": "int32"}, {"name": "StatefulPartitionedCall/autoencoder/StatefulPartitionedCall/dilated_conv_decoder/dilated_conv_stack/normalize_10/moments/variance/reduction_indices", "shape": [3], "dtype": "int32"}, {"name": "StatefulPartitionedCall/autoencoder/StatefulPartitionedCall/dilated_conv_decoder/dilated_conv_stack/normalize_10/add/y", "shape": [], "dtype": "float32"}, {"name": "StatefulPartitionedCall/autoencoder/StatefulPartitionedCall/dilated_conv_decoder/dilated_conv_stack/normalize_10/Reshape_1/shape", "shape": [4], "dtype": "int32"}, {"name": "Func/StatefulPartitionedCall/autoencoder/StatefulPartitionedCall/input/_119", "shape": [1, 1, 1, 128], "dtype": "float32"}, {"name": "StatefulPartitionedCall/autoencoder/StatefulPartitionedCall/dilated_conv_decoder/dilated_conv_stack/dilated_conv/conv2d_12/Conv2D/SpaceToBatchND/block_shape", "shape": [2], "dtype": "int32"}, {"name": "StatefulPartitionedCall/autoencoder/StatefulPartitionedCall/dilated_conv_decoder/dilated_conv_stack/dilated_conv/conv2d_12/Conv2D/SpaceToBatchND/paddings", "shape": [2, 2], "dtype": "int32"}, {"name": "Func/StatefulPartitionedCall/autoencoder/StatefulPartitionedCall/input/_121", "shape": [3, 1, 128, 128], "dtype": "float32"}, {"name": "StatefulPartitionedCall/autoencoder/StatefulPartitionedCall/dilated_conv_decoder/dilated_conv_stack/dilated_conv/conv2d_12/Conv2D/BatchToSpaceND/block_shape", "shape": [2], "dtype": "int32"}, {"name": "StatefulPartitionedCall/autoencoder/StatefulPartitionedCall/dilated_conv_decoder/dilated_conv_stack/dilated_conv/conv2d_12/Conv2D/BatchToSpaceND/crops", "shape": [2, 2], "dtype": "int32"}, {"name": "Func/StatefulPartitionedCall/autoencoder/StatefulPartitionedCall/input/_122", "shape": [128], "dtype": "float32"}, {"name": "StatefulPartitionedCall/autoencoder/StatefulPartitionedCall/dilated_conv_decoder/dilated_conv_stack/normalize_11/Reshape/shape", "shape": [5], "dtype": "int32"}, {"name": "StatefulPartitionedCall/autoencoder/StatefulPartitionedCall/dilated_conv_decoder/dilated_conv_stack/normalize_11/moments/mean/reduction_indices", "shape": [3], "dtype": "int32"}, {"name": "StatefulPartitionedCall/autoencoder/StatefulPartitionedCall/dilated_conv_decoder/dilated_conv_stack/normalize_11/moments/variance/reduction_indices", "shape": [3], "dtype": "int32"}, {"name": "StatefulPartitionedCall/autoencoder/StatefulPartitionedCall/dilated_conv_decoder/dilated_conv_stack/normalize_11/add/y", "shape": [], "dtype": "float32"}, {"name": "StatefulPartitionedCall/autoencoder/StatefulPartitionedCall/dilated_conv_decoder/dilated_conv_stack/normalize_11/Reshape_1/shape", "shape": [4], "dtype": "int32"}, {"name": "Func/StatefulPartitionedCall/autoencoder/StatefulPartitionedCall/input/_123", "shape": [1, 1, 1, 128], "dtype": "float32"}, {"name": "StatefulPartitionedCall/autoencoder/StatefulPartitionedCall/dilated_conv_decoder/dilated_conv_stack/dilated_conv/conv2d_13/Conv2D/SpaceToBatchND/block_shape", "shape": [2], "dtype": "int32"}, {"name": "StatefulPartitionedCall/autoencoder/StatefulPartitionedCall/dilated_conv_decoder/dilated_conv_stack/dilated_conv/conv2d_13/Conv2D/SpaceToBatchND/paddings", "shape": [2, 2], "dtype": "int32"}, {"name": "Func/StatefulPartitionedCall/autoencoder/StatefulPartitionedCall/input/_125", "shape": [3, 1, 128, 128], "dtype": "float32"}, {"name": "StatefulPartitionedCall/autoencoder/StatefulPartitionedCall/dilated_conv_decoder/dilated_conv_stack/dilated_conv/conv2d_13/Conv2D/BatchToSpaceND/block_shape", "shape": [2], "dtype": "int32"}, {"name": "StatefulPartitionedCall/autoencoder/StatefulPartitionedCall/dilated_conv_decoder/dilated_conv_stack/dilated_conv/conv2d_13/Conv2D/BatchToSpaceND/crops", "shape": [2, 2], "dtype": "int32"}, {"name": "Func/StatefulPartitionedCall/autoencoder/StatefulPartitionedCall/input/_126", "shape": [128], "dtype": "float32"}, {"name": "StatefulPartitionedCall/autoencoder/StatefulPartitionedCall/dilated_conv_decoder/dilated_conv_stack/normalize_12/Reshape/shape", "shape": [5], "dtype": "int32"}, {"name": "StatefulPartitionedCall/autoencoder/StatefulPartitionedCall/dilated_conv_decoder/dilated_conv_stack/normalize_12/moments/mean/reduction_indices", "shape": [3], "dtype": "int32"}, {"name": "StatefulPartitionedCall/autoencoder/StatefulPartitionedCall/dilated_conv_decoder/dilated_conv_stack/normalize_12/moments/variance/reduction_indices", "shape": [3], "dtype": "int32"}, {"name": "StatefulPartitionedCall/autoencoder/StatefulPartitionedCall/dilated_conv_decoder/dilated_conv_stack/normalize_12/add/y", "shape": [], "dtype": "float32"}, {"name": "StatefulPartitionedCall/autoencoder/StatefulPartitionedCall/dilated_conv_decoder/dilated_conv_stack/normalize_12/Reshape_1/shape", "shape": [4], "dtype": "int32"}, {"name": "Func/StatefulPartitionedCall/autoencoder/StatefulPartitionedCall/input/_127", "shape": [1, 1, 1, 128], "dtype": "float32"}, {"name": "StatefulPartitionedCall/autoencoder/StatefulPartitionedCall/dilated_conv_decoder/dilated_conv_stack/dilated_conv/conv2d_14/Conv2D/SpaceToBatchND/block_shape", "shape": [2], "dtype": "int32"}, {"name": "StatefulPartitionedCall/autoencoder/StatefulPartitionedCall/dilated_conv_decoder/dilated_conv_stack/dilated_conv/conv2d_14/Conv2D/SpaceToBatchND/paddings", "shape": [2, 2], "dtype": "int32"}, {"name": "Func/StatefulPartitionedCall/autoencoder/StatefulPartitionedCall/input/_129", "shape": [3, 1, 128, 128], "dtype": "float32"}, {"name": "StatefulPartitionedCall/autoencoder/StatefulPartitionedCall/dilated_conv_decoder/dilated_conv_stack/dilated_conv/conv2d_14/Conv2D/BatchToSpaceND/block_shape", "shape": [2], "dtype": "int32"}, {"name": "StatefulPartitionedCall/autoencoder/StatefulPartitionedCall/dilated_conv_decoder/dilated_conv_stack/dilated_conv/conv2d_14/Conv2D/BatchToSpaceND/crops", "shape": [2, 2], "dtype": "int32"}, {"name": "Func/StatefulPartitionedCall/autoencoder/StatefulPartitionedCall/input/_130", "shape": [128], "dtype": "float32"}, {"name": "StatefulPartitionedCall/autoencoder/StatefulPartitionedCall/dilated_conv_decoder/dilated_conv_stack/normalize_13/Reshape/shape", "shape": [5], "dtype": "int32"}, {"name": "StatefulPartitionedCall/autoencoder/StatefulPartitionedCall/dilated_conv_decoder/dilated_conv_stack/normalize_13/moments/mean/reduction_indices", "shape": [3], "dtype": "int32"}, {"name": "StatefulPartitionedCall/autoencoder/StatefulPartitionedCall/dilated_conv_decoder/dilated_conv_stack/normalize_13/moments/variance/reduction_indices", "shape": [3], "dtype": "int32"}, {"name": "StatefulPartitionedCall/autoencoder/StatefulPartitionedCall/dilated_conv_decoder/dilated_conv_stack/normalize_13/add/y", "shape": [], "dtype": "float32"}, {"name": "StatefulPartitionedCall/autoencoder/StatefulPartitionedCall/dilated_conv_decoder/dilated_conv_stack/normalize_13/Reshape_1/shape", "shape": [4], "dtype": "int32"}, {"name": "Func/StatefulPartitionedCall/autoencoder/StatefulPartitionedCall/input/_131", "shape": [1, 1, 1, 128], "dtype": "float32"}, {"name": "StatefulPartitionedCall/autoencoder/StatefulPartitionedCall/dilated_conv_decoder/dilated_conv_stack/dilated_conv/conv2d_15/Conv2D/SpaceToBatchND/block_shape", "shape": [2], "dtype": "int32"}, {"name": "StatefulPartitionedCall/autoencoder/StatefulPartitionedCall/dilated_conv_decoder/dilated_conv_stack/dilated_conv/conv2d_15/Conv2D/SpaceToBatchND/paddings", "shape": [2, 2], "dtype": "int32"}, {"name": "Func/StatefulPartitionedCall/autoencoder/StatefulPartitionedCall/input/_133", "shape": [3, 1, 128, 128], "dtype": "float32"}, {"name": "StatefulPartitionedCall/autoencoder/StatefulPartitionedCall/dilated_conv_decoder/dilated_conv_stack/dilated_conv/conv2d_15/Conv2D/BatchToSpaceND/block_shape", "shape": [2], "dtype": "int32"}, {"name": "StatefulPartitionedCall/autoencoder/StatefulPartitionedCall/dilated_conv_decoder/dilated_conv_stack/dilated_conv/conv2d_15/Conv2D/BatchToSpaceND/crops", "shape": [2, 2], "dtype": "int32"}, {"name": "Func/StatefulPartitionedCall/autoencoder/StatefulPartitionedCall/input/_134", "shape": [128], "dtype": "float32"}, {"name": "StatefulPartitionedCall/autoencoder/StatefulPartitionedCall/dilated_conv_decoder/dilated_conv_stack/normalize_14/Reshape/shape", "shape": [5], "dtype": "int32"}, {"name": "StatefulPartitionedCall/autoencoder/StatefulPartitionedCall/dilated_conv_decoder/dilated_conv_stack/normalize_14/moments/mean/reduction_indices", "shape": [3], "dtype": "int32"}, {"name": "StatefulPartitionedCall/autoencoder/StatefulPartitionedCall/dilated_conv_decoder/dilated_conv_stack/normalize_14/moments/variance/reduction_indices", "shape": [3], "dtype": "int32"}, {"name": "StatefulPartitionedCall/autoencoder/StatefulPartitionedCall/dilated_conv_decoder/dilated_conv_stack/normalize_14/add/y", "shape": [], "dtype": "float32"}, {"name": "StatefulPartitionedCall/autoencoder/StatefulPartitionedCall/dilated_conv_decoder/dilated_conv_stack/normalize_14/Reshape_1/shape", "shape": [4], "dtype": "int32"}, {"name": "Func/StatefulPartitionedCall/autoencoder/StatefulPartitionedCall/input/_135", "shape": [1, 1, 1, 128], "dtype": "float32"}, {"name": "StatefulPartitionedCall/autoencoder/StatefulPartitionedCall/dilated_conv_decoder/dilated_conv_stack/dilated_conv/conv2d_16/Conv2D/SpaceToBatchND/block_shape", "shape": [2], "dtype": "int32"}, {"name": "StatefulPartitionedCall/autoencoder/StatefulPartitionedCall/dilated_conv_decoder/dilated_conv_stack/dilated_conv/conv2d_16/Conv2D/SpaceToBatchND/paddings", "shape": [2, 2], "dtype": "int32"}, {"name": "Func/StatefulPartitionedCall/autoencoder/StatefulPartitionedCall/input/_137", "shape": [3, 1, 128, 128], "dtype": "float32"}, {"name": "StatefulPartitionedCall/autoencoder/StatefulPartitionedCall/dilated_conv_decoder/dilated_conv_stack/dilated_conv/conv2d_16/Conv2D/BatchToSpaceND/block_shape", "shape": [2], "dtype": "int32"}, {"name": "StatefulPartitionedCall/autoencoder/StatefulPartitionedCall/dilated_conv_decoder/dilated_conv_stack/dilated_conv/conv2d_16/Conv2D/BatchToSpaceND/crops", "shape": [2, 2], "dtype": "int32"}, {"name": "Func/StatefulPartitionedCall/autoencoder/StatefulPartitionedCall/input/_138", "shape": [128], "dtype": "float32"}, {"name": "StatefulPartitionedCall/autoencoder/StatefulPartitionedCall/dilated_conv_decoder/dilated_conv_stack/normalize_15/Reshape/shape", "shape": [5], "dtype": "int32"}, {"name": "StatefulPartitionedCall/autoencoder/StatefulPartitionedCall/dilated_conv_decoder/dilated_conv_stack/normalize_15/moments/mean/reduction_indices", "shape": [3], "dtype": "int32"}, {"name": "StatefulPartitionedCall/autoencoder/StatefulPartitionedCall/dilated_conv_decoder/dilated_conv_stack/normalize_15/moments/variance/reduction_indices", "shape": [3], "dtype": "int32"}, {"name": "StatefulPartitionedCall/autoencoder/StatefulPartitionedCall/dilated_conv_decoder/dilated_conv_stack/normalize_15/add/y", "shape": [], "dtype": "float32"}, {"name": "StatefulPartitionedCall/autoencoder/StatefulPartitionedCall/dilated_conv_decoder/dilated_conv_stack/normalize_15/Reshape_1/shape", "shape": [4], "dtype": "int32"}, {"name": "Func/StatefulPartitionedCall/autoencoder/StatefulPartitionedCall/input/_139", "shape": [1, 1, 1, 128], "dtype": "float32"}, {"name": "StatefulPartitionedCall/autoencoder/StatefulPartitionedCall/dilated_conv_decoder/dilated_conv_stack/strided_slice_1/stack", "shape": [4], "dtype": "int32"}, {"name": "StatefulPartitionedCall/autoencoder/StatefulPartitionedCall/dilated_conv_decoder/dilated_conv_stack/strided_slice_1/stack_1", "shape": [4], "dtype": "int32"}, {"name": "StatefulPartitionedCall/autoencoder/StatefulPartitionedCall/dilated_conv_decoder/dilated_conv_stack/strided_slice_1/stack_2", "shape": [4], "dtype": "int32"}, {"name": "StatefulPartitionedCall/autoencoder/StatefulPartitionedCall/dilated_conv_decoder/dense/Tensordot/Reshape/shape", "shape": [2], "dtype": "int32"}, {"name": "Func/StatefulPartitionedCall/autoencoder/StatefulPartitionedCall/input/_141", "shape": [128, 126], "dtype": "float32"}, {"name": "StatefulPartitionedCall/autoencoder/StatefulPartitionedCall/dilated_conv_decoder/dense/Tensordot/shape", "shape": [3], "dtype": "int32"}, {"name": "Func/StatefulPartitionedCall/autoencoder/StatefulPartitionedCall/input/_142", "shape": [126], "dtype": "float32"}, {"name": "StatefulPartitionedCall/autoencoder/StatefulPartitionedCall/dilated_conv_decoder/Const", "shape": [3], "dtype": "int32"}, {"name": "StatefulPartitionedCall/autoencoder/StatefulPartitionedCall/dilated_conv_decoder/split/split_dim", "shape": [], "dtype": "int32"}, {"name": "StatefulPartitionedCall/autoencoder/StatefulPartitionedCall/processor_group/Log_1", "shape": [], "dtype": "float32"}, {"name": "StatefulPartitionedCall/autoencoder/StatefulPartitionedCall/processor_group/add_1/y", "shape": [], "dtype": "float32"}, {"name": "StatefulPartitionedCall/autoencoder/StatefulPartitionedCall/processor_group/Sum/reduction_indices", "shape": [], "dtype": "int32"}, {"name": "StatefulPartitionedCall/autoencoder/StatefulPartitionedCall/processor_group/strided_slice_4/stack", "shape": [3], "dtype": "int32"}, {"name": "StatefulPartitionedCall/autoencoder/StatefulPartitionedCall/processor_group/strided_slice_4/stack_1", "shape": [3], "dtype": "int32"}, {"name": "StatefulPartitionedCall/autoencoder/StatefulPartitionedCall/processor_group/strided_slice_4/stack_2", "shape": [3], "dtype": "int32"}, {"name": "StatefulPartitionedCall/autoencoder/StatefulPartitionedCall/processor_group/concat/axis", "shape": [], "dtype": "int32"}, {"name": "StatefulPartitionedCall/autoencoder/StatefulPartitionedCall/processor_group/transpose/perm", "shape": [3], "dtype": "int32"}, {"name": "StatefulPartitionedCall/autoencoder/StatefulPartitionedCall/processor_group/strided_slice_5/stack", "shape": [4], "dtype": "int32"}, {"name": "StatefulPartitionedCall/autoencoder/StatefulPartitionedCall/processor_group/strided_slice_5/stack_1", "shape": [4], "dtype": "int32"}, {"name": "StatefulPartitionedCall/autoencoder/StatefulPartitionedCall/processor_group/strided_slice_5/stack_2", "shape": [4], "dtype": "int32"}, {"name": "StatefulPartitionedCall/autoencoder/StatefulPartitionedCall/processor_group/strided_slice_6", "shape": [1, 1, 1, 128], "dtype": "float32"}, {"name": "StatefulPartitionedCall/autoencoder/StatefulPartitionedCall/processor_group/overlap_and_add/concat", "shape": [4, 2], "dtype": "int32"}, {"name": "StatefulPartitionedCall/autoencoder/StatefulPartitionedCall/processor_group/overlap_and_add/concat_1", "shape": [5], "dtype": "int32"}, {"name": "StatefulPartitionedCall/autoencoder/StatefulPartitionedCall/processor_group/overlap_and_add/transpose/perm", "shape": [5], "dtype": "int32"}, {"name": "StatefulPartitionedCall/autoencoder/StatefulPartitionedCall/processor_group/overlap_and_add/concat_3", "shape": [4], "dtype": "int32"}, {"name": "StatefulPartitionedCall/autoencoder/StatefulPartitionedCall/processor_group/overlap_and_add/strided_slice/stack", "shape": [3], "dtype": "int32"}, {"name": "StatefulPartitionedCall/autoencoder/StatefulPartitionedCall/processor_group/overlap_and_add/strided_slice/stack_1", "shape": [3], "dtype": "int32"}, {"name": "StatefulPartitionedCall/autoencoder/StatefulPartitionedCall/processor_group/overlap_and_add/strided_slice/stack_2", "shape": [3], "dtype": "int32"}, {"name": "StatefulPartitionedCall/autoencoder/StatefulPartitionedCall/processor_group/overlap_and_add/concat_4", "shape": [5], "dtype": "int32"}, {"name": "StatefulPartitionedCall/autoencoder/StatefulPartitionedCall/processor_group/overlap_and_add/Sum/reduction_indices", "shape": [], "dtype": "int32"}, {"name": "StatefulPartitionedCall/autoencoder/StatefulPartitionedCall/processor_group/overlap_and_add/concat_5", "shape": [3], "dtype": "int32"}, {"name": "StatefulPartitionedCall/autoencoder/StatefulPartitionedCall/processor_group/overlap_and_add/strided_slice_1/stack", "shape": [2], "dtype": "int32"}, {"name": "StatefulPartitionedCall/autoencoder/StatefulPartitionedCall/processor_group/overlap_and_add/strided_slice_1/stack_1", "shape": [2], "dtype": "int32"}, {"name": "StatefulPartitionedCall/autoencoder/StatefulPartitionedCall/processor_group/overlap_and_add/strided_slice_1/stack_2", "shape": [2], "dtype": "int32"}, {"name": "StatefulPartitionedCall/autoencoder/StatefulPartitionedCall/processor_group/transpose_1/perm", "shape": [3], "dtype": "int32"}, {"name": "StatefulPartitionedCall/autoencoder/StatefulPartitionedCall/processor_group/strided_slice_7/stack", "shape": [3], "dtype": "int32"}, {"name": "StatefulPartitionedCall/autoencoder/StatefulPartitionedCall/processor_group/strided_slice_7/stack_1", "shape": [3], "dtype": "int32"}, {"name": "StatefulPartitionedCall/autoencoder/StatefulPartitionedCall/processor_group/strided_slice_7/stack_2", "shape": [3], "dtype": "int32"}, {"name": "StatefulPartitionedCall/autoencoder/StatefulPartitionedCall/strided_slice_4/stack", "shape": [2], "dtype": "int32"}, {"name": "StatefulPartitionedCall/autoencoder/StatefulPartitionedCall/strided_slice_4/stack_1", "shape": [2], "dtype": "int32"}, {"name": "StatefulPartitionedCall/autoencoder/StatefulPartitionedCall/strided_slice_4/stack_2", "shape": [2], "dtype": "int32"}, {"name": "StatefulPartitionedCall/autoencoder/StatefulPartitionedCall/strided_slice_5/stack", "shape": [3], "dtype": "int32"}, {"name": "StatefulPartitionedCall/autoencoder/StatefulPartitionedCall/strided_slice_5/stack_1", "shape": [3], "dtype": "int32"}, {"name": "StatefulPartitionedCall/autoencoder/StatefulPartitionedCall/strided_slice_5/stack_2", "shape": [3], "dtype": "int32"}, {"name": "StatefulPartitionedCall/autoencoder/StatefulPartitionedCall/strided_slice_6/stack", "shape": [4], "dtype": "int32"}, {"name": "StatefulPartitionedCall/autoencoder/StatefulPartitionedCall/strided_slice_6/stack_1", "shape": [4], "dtype": "int32"}, {"name": "StatefulPartitionedCall/autoencoder/StatefulPartitionedCall/strided_slice_6/stack_2", "shape": [4], "dtype": "int32"}, {"name": "StatefulPartitionedCall/autoencoder/StatefulPartitionedCall/resize_1/size", "shape": [2], "dtype": "int32"}, {"name": "StatefulPartitionedCall/autoencoder/StatefulPartitionedCall/strided_slice_7/stack", "shape": [4], "dtype": "int32"}, {"name": "StatefulPartitionedCall/autoencoder/StatefulPartitionedCall/strided_slice_7/stack_1", "shape": [4], "dtype": "int32"}, {"name": "StatefulPartitionedCall/autoencoder/StatefulPartitionedCall/strided_slice_7/stack_2", "shape": [4], "dtype": "int32"}, {"name": "StatefulPartitionedCall/autoencoder/StatefulPartitionedCall/processor_group/strided_slice_1", "shape": [1, 1, 60], "dtype": "float32"}, {"name": "StatefulPartitionedCall/autoencoder/StatefulPartitionedCall/processor_group/strided_slice_2/stack", "shape": [4], "dtype": "int32"}, {"name": "StatefulPartitionedCall/autoencoder/StatefulPartitionedCall/processor_group/strided_slice_2/stack_1", "shape": [4], "dtype": "int32"}, {"name": "StatefulPartitionedCall/autoencoder/StatefulPartitionedCall/processor_group/strided_slice_2/stack_2", "shape": [4], "dtype": "int32"}, {"name": "StatefulPartitionedCall/autoencoder/StatefulPartitionedCall/processor_group/resize/size", "shape": [2], "dtype": "int32"}, {"name": "StatefulPartitionedCall/autoencoder/StatefulPartitionedCall/processor_group/strided_slice_3/stack", "shape": [4], "dtype": "int32"}, {"name": "StatefulPartitionedCall/autoencoder/StatefulPartitionedCall/processor_group/strided_slice_3/stack_1", "shape": [4], "dtype": "int32"}, {"name": "StatefulPartitionedCall/autoencoder/StatefulPartitionedCall/processor_group/strided_slice_3/stack_2", "shape": [4], "dtype": "int32"}, {"name": "StatefulPartitionedCall/autoencoder/StatefulPartitionedCall/processor_group/mul_6", "shape": [], "dtype": "float32"}, {"name": "StatefulPartitionedCall/autoencoder/StatefulPartitionedCall/processor_group/Reshape/shape", "shape": [4], "dtype": "int32"}, {"name": "StatefulPartitionedCall/autoencoder/StatefulPartitionedCall/processor_group/Cumsum/axis", "shape": [], "dtype": "int32"}, {"name": "StatefulPartitionedCall/autoencoder/StatefulPartitionedCall/processor_group/strided_slice_8/stack", "shape": [4], "dtype": "int32"}, {"name": "StatefulPartitionedCall/autoencoder/StatefulPartitionedCall/processor_group/strided_slice_8/stack_1", "shape": [4], "dtype": "int32"}, {"name": "StatefulPartitionedCall/autoencoder/StatefulPartitionedCall/processor_group/strided_slice_8/stack_2", "shape": [4], "dtype": "int32"}, {"name": "StatefulPartitionedCall/autoencoder/StatefulPartitionedCall/processor_group/mod/y", "shape": [], "dtype": "float32"}, {"name": "StatefulPartitionedCall/autoencoder/StatefulPartitionedCall/processor_group/Pad/paddings", "shape": [4, 2], "dtype": "int32"}, {"name": "StatefulPartitionedCall/autoencoder/StatefulPartitionedCall/processor_group/strided_slice_9/stack", "shape": [3], "dtype": "int32"}, {"name": "StatefulPartitionedCall/autoencoder/StatefulPartitionedCall/processor_group/strided_slice_9/stack_1", "shape": [3], "dtype": "int32"}, {"name": "StatefulPartitionedCall/autoencoder/StatefulPartitionedCall/processor_group/strided_slice_9/stack_2", "shape": [3], "dtype": "int32"}, {"name": "StatefulPartitionedCall/autoencoder/StatefulPartitionedCall/processor_group/Cumsum_1/axis", "shape": [], "dtype": "int32"}, {"name": "StatefulPartitionedCall/autoencoder/StatefulPartitionedCall/processor_group/mod_1/y", "shape": [], "dtype": "float32"}, {"name": "StatefulPartitionedCall/autoencoder/StatefulPartitionedCall/processor_group/mod_2/y", "shape": [], "dtype": "float32"}, {"name": "StatefulPartitionedCall/autoencoder/StatefulPartitionedCall/processor_group/Reshape_1/shape", "shape": [3], "dtype": "int32"}, {"name": "StatefulPartitionedCall/autoencoder/StatefulPartitionedCall/processor_group/Sum_1/reduction_indices", "shape": [], "dtype": "int32"}]}]}